biased_simulations/iter_1_biased/0/umbrella.pt (torch, 22465 bytes, 13 tensors)

norm_mu f4 [3]
000000 bc 2d 17 bd 63 17 eb 3e 38 71 0b ba
       -0.03690885 0.4591628 -0.00053193

norm_std f4 [3]
000000 a1 d9 aa 3d 25 da 32 3d 6b 8d 17 3d
       0.08342291 0.04366507 0.0370001

weight f4 [8, 3]
000000 8b 51 52 c0 18 16 a6 bc 0e 2e b7 3e 5d 5c f9 3f
       -3.286227 -0.020274207 0.35777324 1.9481312
000010 08 79 63 3f 97 cc 03 41 1e a4 ac 3c cd fe e2 3f
       0.88856554 8.237449 0.02107435 1.7734009
000020 c9 c6 3d 40 c3 d2 da 3f 2f 4b e9 3f 1b ee 8d c0
       2.965258 1.7095569 1.8226069 -4.4353156
000030 e3 6f a8 40 d9 b2 a4 bf 8e fd b7 40 c8 e2 92 3d
       5.263658 -1.286708 5.7497015 0.07172161
000040 30 49 38 bf 55 a5 54 c0 3b 01 0b bf 18 34 df bf
       -0.71986675 -3.322591 -0.5429875 -1.7437773
000050 6f 1b 63 40 44 55 35 40 6d 7b 86 be ad ae 89 c0
       3.5485494 2.8333292 -0.2626604 -4.3025727

bias f4 [8]
000000 fe e9 67 3e 2a d0 88 bf 76 b3 15 40 2a d8 ec be
       0.22647855 -1.0688527 2.3390784 -0.4625867
000010 3a c2 fb 3f 8f e0 a9 bf 2e b1 f8 3f 24 3d 04 bd
       1.9668648 -1.3271655 1.9429071 -0.03228487

weight f4 [4, 8]
000000 f3 8e c3 bf c3 2d 95 bd 6e a1 05 3f c2 55 97 3e
       -1.5278 -0.07284119 0.5219945 0.29557616
000010 4a e8 ec 3f 94 30 6e be 9b 73 fe 3f 68 d5 30 3f
       1.8508389 -0.23260719 1.987903 0.6907563
000020 83 f4 f6 bd 12 f0 6f be 51 84 d2 be 93 67 ad bd
       -0.12058356 -0.23431423 -0.41116574 -0.08467021
000030 88 76 d4 bf 26 ea 41 3f 2b be c2 3d f3 ab 65 3e
       -1.6598673 0.7574791 0.09508928 0.22428875
000040 47 a3 15 40 67 65 97 3f 0f 2e 2b 40 e3 06 14 bf
       2.3380907 1.182782 2.6746862 -0.5782301
000050 8c a5 a1 be d1 a3 fd bf 09 c7 57 bc af 1d ff bf
       -0.31571615 -1.9815618 -0.013170012 -1.9930934
000060 8b 66 b9 3e c2 c1 50 3e 86 82 bf 3e da d2 b4 3e
       0.36211047 0.20386413 0.3740427 0.35317117
000070 d1 86 02 3e ea 8b 2a 3d 68 d8 dd 3c ae 2d 1f 3e
       0.12746741 0.04163734 0.02708073 0.15544769

bias f4 [4]
000000 8b 4c 10 3f 7e 1f 5c bc 7b f4 95 3f aa e2 80 be
       0.56366795 -0.013435243 1.1715235 -0.2517293

weight f4 [1, 4]
000000 00 24 59 3f be da 68 3f 66 27 17 bf d4 9a 93 3e
       0.84820557 0.90958774 -0.5904449 0.28829062

weight f4 [4, 1]
000000 23 36 4f c0 67 d5 86 c0 2a 7f 87 40 33 e9 51 c0
       -3.2376792 -4.21355 4.234273 -3.2798584

bias f4 [4]
000000 3f f5 8d bf 1c d9 8d 3d db f5 97 bf 35 67 db be
       -1.1090468 0.06926176 -1.1871904 -0.42852178

weight f4 [8, 4]
000000 6c 71 ae bf 83 4c 0b c0 a7 03 3a bf 84 25 8f c0
       -1.3628364 -2.176545 -0.72661823 -4.4733295
000010 95 7f 6d 3f e7 b6 e1 c0 13 5d d9 3f aa bc 74 c0
       0.927728 -7.053577 1.6981529 -3.8240151
000020 f6 ef d3 3f e1 f0 66 3f 4e c0 75 3e 5e b8 9f 3f
       1.6557605 0.902113 0.2399914 1.2478139
000030 56 66 7a bc b9 b3 d8 40 79 69 60 bf 33 98 8b 40
       -0.015283188 6.771939 -0.8766094 4.362329
000040 a1 4c 50 40 95 82 84 3f 54 69 fd 3d 2f 98 21 40
       3.254677 1.035235 0.12373605 2.5249135
000050 f3 63 08 c0 e0 9a 66 bf 06 3c f8 c0 53 07 e6 be
       -2.1311004 -0.9008007 -7.757327 -0.44927463
000060 35 20 86 40 66 ef cb 3e 90 3d 90 3f e8 74 78 3e
       4.1914315 0.39831084 1.1268787 0.24263346
000070 8e 40 b4 3e 2e 39 e2 bd 94 43 25 bf 2d 8f 0e be
       0.352055 -0.110460624 -0.6455624 -0.13921805

bias f4 [8]
000000 53 79 4b 3f 3c df 99 bf f1 7a 0c bf 80 a2 78 3f
       0.79482 -1.2021251 -0.54875094 0.97122955
000010 7a 91 e5 be 0e 73 13 40 ab 0c 5b bf 20 24 fe 3d
       -0.44837552 2.3038974 -0.85566205 0.12409234

weight f4 [3, 8]
000000 c3 ee 64 bf 69 c8 2f 40 85 38 f8 bf 7f 09 63 3d
       -0.8942682 2.746607 -1.9392248 0.055428978
000010 b3 92 26 c0 c4 5a a9 be 37 3b 19 bf cc ab b9 bf
       -2.6027038 -0.3307706 -0.5985598 -1.4505553
000020 3e 47 1e 40 f7 a7 0c c0 51 51 93 3f 49 ae 08 c0
       2.4730983 -2.1977518 1.1509191 -2.1356375
000030 7c 41 c0 3f 95 84 7b 3f 95 59 a1 3f 63 40 13 40
       1.5019984 0.9824918 1.2605463 2.3008049
000040 30 06 fc b6 a6 70 55 37 04 9c cc b8 b3 24 bf 38
       -7.5109056e-06 1.2722017e-05 -9.756538e-05 9.1144255e-05
000050 90 83 f3 36 9b ab 34 b8 5a 1e 58 38 48 d5 0f 39
       7.2572802e-06 -4.3075164e-05 5.152668e-05 0.00013716996

bias f4 [3]
000000 07 1d 02 bf e8 d5 ba be be 02 81 b8
       -0.5082554 -0.36491323 -6.15171e-05
