biased_simulations/iter_1_biased/0/umbrella.pt (torch, 51625 bytes, 17 tensors)

norm_mu f4 [3]
00000000: bc2d 17bd 6317 eb3e 3871 0bba
-0.03690885 0.4591628 -0.00053193

norm_std f4 [3]
00000000: a1d9 aa3d 25da 323d 6b8d 173d
0.08342291 0.04366507 0.0370001

weight f4 [64, 3]
00000000: fc8e cd3c 5441 0bbd 321c e0be c718 d63d
00000010: 4f04 ce3e b82d 3140 a2d6 f93e 389d 62bf
00000020: 114e cc40 c575 fc3e 48f7 84be 9868 4a40
00000030: 085e 2bbe 829a 293e 4980 ab40 dd24 0f3f
00000040: 40bb c1bb e0e4 083f 6cbe 053f 526c fe3c
00000050: 8935 e4bf dd4d 3d3f 4d99 e7be d807 e6bf
00000060: 9f0e 4d3f c774 34bf 8b14 87bf 12d5 2b3e
00000070: 1d66 91bf a600 f9be 8c69 9dbe 7703 09bf
00000080: c54d 893f d4d2 053f 5e20 e0be 7677 94c0
00000090: bc24 083f 40ef 1c3d ea89 8040 6694 ea3e
000000a0: 43d4 2b3d 732e 96bf 2248 fdbe 6c5b 0f3f
000000b0: 96b7 e0bf e4c6 123e c421 03bf 81a4 263f
000000c0: cd8d 8bbc 3f8b 3bbd a9a6 9f3e f6ef f93e
000000d0: af1e cfbe f280 34bf 2b92 dc3c fdf8 6c3e
000000e0: 671a 983f 3514 783d e467 e3be f559 b4c0
000000f0: 5bdf e1be fbf2 c23d 0c13 93c0 7363 09bf
00000100: a3cd 86be 293c a0bd d832 23be 463f 4f3e
00000110: 3ba5 84be d405 4d3f 78d8 053f 5966 673f
00000120: 6c27 233f df53 81be 6ecd 093f b3d3 b63e
00000130: 2145 8fbd 584c 82bf f69d f33d 0145 ffbe
00000140: 39b6 1fbf 2a6a cbbe cb81 143f bcb7 d4bf
00000150: 6379 333f f7a6 1a3f 000b 933f 0e40 0f3e
00000160: 02f0 f2be 69dd 45c0 60f1 0fbe 88c6 003f
00000170: 9245 133f 4ad3 063e 24c0 4dbd 57cc abbe
00000180: fa48 2f3f ac4d 5abf deaa 0b3f 5337 94bd
00000190: 35a4 eebe a353 dbbf d225 343f 153e ecbc
000001a0: 97d1 853f 82f9 ffbe 2871 6ebe fc04 a83f
000001b0: ceb3 8f3e 57c9 4bbd 2cc1 973e 6321 10be
000001c0: 5290 883e 06f6 51be 3b4e ccbe f1d6 45bd
000001d0: 401a c53f ca28 c13e 6394 bfbd ca16 d63e
000001e0: de57 0e3d c4b9 2c3f 2af0 563e 49b8 923e
000001f0: ffee c23e c1c2 7640 6b40 3f3e 5d6b 983e
00000200: 73d9 733f d7b5 1ebf 5ae2 8c3e 82c2 9ac0
00000210: f4c4 b0be 70f5 523f 0315 963f 7493 4abd
00000220: 3322 f6be 97df 3ebf 5c3f 5abe 74c1 923e
00000230: 9522 6cbf 3ebd 003e 401a 233e a0cf dc3f
00000240: a7e9 173f ec76 79bd 47dc 0540 38a0 393e
00000250: ad71 b53e e28c 08bd f552 6fbe 71e6 c13e
00000260: 2416 b6bf 7c84 81be 34f6 303c f4c6 ab3e
00000270: 2ca4 3f3e be16 31bd f02b d83e 9bd5 d7bd
00000280: 6b95 c4be 6f8d a8be 1ce4 05bf 93eb f73e
00000290: 718f 9f40 7c1f 01ba 2573 b93d 0da6 6740
000002a0: c09f 073f e433 583e 98f2 76bf e6e0 c33d
000002b0: 1bbd 3bbd 1b7d 3440 441e 1e3f 712c 293e
000002c0: d6c1 5bbf 2be2 bbbe 45f4 143e e9dd 43c0
000002d0: 6a40 383f ce87 15bf c139 89c0 8b71 523e
000002e0: f287 22bf 36a3 55c0 5d74 a2be 1bdc 25bf
000002f0: 2a66 8140 46d8 07bf 891e ef3e 9af5 35bf
0.025092594 -0.03399785 -0.4377151 0.10453945 0.40237662 2.7684155 0.48796564 -0.88521147
6.3845296 0.493086 -0.2596991 3.162634 -0.16735089 0.16562846 5.35941 0.55915624
-0.0059122145 0.53474236 0.52243686 0.03105751 -1.7828838 0.73946935 -0.45234147 -1.7971144
0.80100435 -0.7049069 -1.0553144 0.16780499 -1.1359288 -0.48633307 -0.30744588 -0.5352091
1.0726858 0.52274823 -0.43774694 -4.6395826 0.5318105 0.038314104 4.016835 0.45816344
0.041950475 -1.1732925 -0.49469095 0.55998874 -1.7556026 0.14333683 -0.512234 0.65094763
-0.01703539 -0.045787092 0.3118184 0.48815888 -0.40453097 -0.70509255 0.026925167 0.23141856
1.1883057 0.060566146 -0.444152 -5.635981 -0.4411572 0.09519001 -4.596075 -0.5366737
-0.26328763 -0.07823975 -0.15937364 0.2023898 -0.2590731 0.8008702 0.5228343 0.90390545
0.6373203 -0.252593 0.53829086 0.3570839 -0.06995607 -1.0179548 0.11895363 -0.49857333
-0.62387425 -0.39729434 0.5801055 -1.6618571 0.70107096 0.6041102 1.1487732 0.13989279
-0.47448736 -3.0916388 -0.14056921 0.50302935 0.5752803 0.13166538 -0.050232068 -0.33554336
0.6847073 -0.8527477 0.545576 -0.07237115 -0.46609655 -1.7134899 0.7037021 -0.028838197
1.0454587 -0.49995047 -0.23285353 1.3126521 0.28066868 -0.04975256 0.29639566 -0.14075236
0.26672608 -0.20504007 -0.39903435 -0.048300687 1.5398636 0.37726432 -0.093544744 0.41814262
0.034751765 0.67470956 0.20990053 0.28656223 0.38072965 3.8556368 0.18676917 0.29769412
0.95253676 -0.61996216 0.27516443 -4.8362436 -0.34525263 0.8240576 1.1725162 -0.04945703
-0.48072967 -0.7455992 -0.21313232 0.28663218 -0.9224027 0.1257219 0.15927982 1.7250862
0.593409 -0.06090443 2.0915697 0.18127525 0.3543829 -0.03333748 -0.2337149 0.37871125
-1.4225507 -0.2529639 0.010800887 0.33550227 0.1871497 -0.04323458 0.42221022 -0.10538789
-0.38395247 -0.32920405 -0.5230119 0.48421916 4.98626 -0.0004925651 0.09055165 3.61951
0.52978134 0.21113545 -0.9646392 0.0956438 -0.045834642 2.8201358 0.6176493 0.1652086
-0.85842645 -0.3669599 0.14546306 -3.0604193 0.7197329 -0.58410347 -4.2883 0.20551126
-0.63488686 -3.3380866 -0.31729403 -0.6478898 4.043721 -0.5306438 0.46702984 -0.71077883

bias f4 [64]
00000000: 0ac3 043e 905d 513d 896d a33e e3f2 bd3e
00000010: 5e80 36be 5707 80bd b547 bfbd 3831 05bf
00000020: 945e 87bf 8014 da3e 3317 cebe 46a8 1cbf
00000030: 6597 553e f417 6fbd f4f7 d9bd 5211 7fbf
00000040: 1607 46be e20c 2ebf fe17 47bd 0d62 eebe
00000050: 7d29 42be a08a f0bd 94e7 b43e 29e1 bdbd
00000060: ddf7 0ebd 0452 fe3e 5208 a63d a1cb 96be
00000070: 1854 2dbf 5bcc 21bf a9e7 43be 4855 bc3e
00000080: 43b7 003e f5c0 d63e 2d06 c2bc 905b b0be
00000090: d9aa dc3e 5498 17bf 09d2 28be d473 673e
000000a0: 3d98 f2bd 76a9 063e da9a 95bb e565 99be
000000b0: 610b d3be 2554 33be 9541 f43e 4ea0 e4be
000000c0: 31be 653e 3b33 f7bb b102 103f 8333 f5be
000000d0: 310d c53e 02d4 04be 8da4 cabe 34d6 453d
000000e0: f446 913e 4a20 6b3e 66ea e2be 4200 0c3f
000000f0: 8c76 5bbf 80b2 b6be 4a12 59be d3a1 323f
0.12965026 0.05111462 0.31919506 0.3709937 -0.17822406 -0.062514 -0.09339849 -0.52028227
-1.0575738 0.42593765 -0.40252075 -0.61194265 0.20858534 -0.058372453 -0.106429964 -0.99635804
-0.1933864 -0.6798841 -0.048606865 -0.46559182 -0.18961139 -0.117451906 0.3533293 -0.092714615
-0.03490435 0.49671948 0.08107056 -0.29452232 -0.6770644 -0.63202447 -0.1913134 0.36783814
0.12569909 0.4194409 -0.023684585 -0.34444857 0.43099096 -0.5921681 -0.16486372 0.22602779
-0.118454434 0.13150582 -0.004565579 -0.29960552 -0.4121962 -0.17512567 0.47706285 -0.44653553
0.22435834 -0.007543949 0.56254107 -0.47890863 0.38486627 -0.129715 -0.39578667 0.048299983
0.28374445 0.22961536 -0.44319457 0.54687893 -0.85727763 -0.3568306 -0.21198383 0.69778174

weight f4 [32, 64]
00000000: ecf5 a83d aa77 92bd b3ac 8a3d 4965 5a3b
00000010: e6f2 c4bd 9f8a 543d 0c7f 15be 4ba5 b3bc
00000020: d1ad e53f 3929 793d 5d3e 183d 27c6 bf3d
00000030: a051 16be 5962 6dbe 979b 21bd a04e 8a3d
00000040: a49e 0d3e 2363 5abf b4f6 62bd 2a1a a13c
00000050: c53c 013e 75cc 8ebe da5a 373e ea4e 4c3e
00000060: 41e4 15be 043f cabc a64e 903d 9cb3 4c3d
00000070: 44f4 c23d de76 babd ee65 dfbb 4505 da3d
00000080: 2384 483d cc1a 4bbc 8f64 533d cd07 f13d
00000090: b796 afbd 9a1d 883c 6f23 bd3d cfdb 0f3c
000000a0: 8f74 01bd ccc3 65bd d943 063d 9fba a13d
000000b0: 11a5 a4bd 3145 b93d 7028 7bbd 6b7c d9be
000000c0: 827f 16be eae3 8f3c 51cd 4f3d 4b64 c1bd
000000d0: 9430 af3d b431 de3d c266 14bc 0d23 a23d
000000e0: 52f7 213e e5a2 abbc af34 04be 0ad2 b5bd
000000f0: 12d2 f53d 7a44 e73b 25ff 703b 4674 2b3e
00000100: 7ed3 aa3d 1a74 dd3d bd56 583d d7ed e4be
00000110: 7a90 26bd 10e1 983e 6e1e b6bd 9d7b 7f3e
00000120: d12c eb3f ee08 6e3d 0c95 243e 4533 df3e
00000130: 44a7 acbe f6f2 9dbd 538d b23d c61a ddbd
00000140: 594f bf3d 3a8a b9be c6fa 963c 7baa 89bd
00000150: 7021 6a3c f62f 00be fcc2 b3bc a72a b03e
00000160: 2b4c 383e e912 bbbd 2a4d 573d 8270 143e
00000170: edd1 eb3c 5874 34be d619 e83c 26d5 b5bd
00000180: d14c 103e 6c94 173e 7f9a 823e 5003 193d
00000190: b3db fd3d 1346 9abd 093b bbbd 9066 2ebf
000001a0: cc35 e8bd 467d 82bd e2bd 15be d3a8 8c3d
000001b0: c40a 723d bde4 cc3c 0c4e 83bc 2e29 3fbf
000001c0: 1fc2 743e 1597 f0bd 2626 3e3d 5f40 b9be
000001d0: bdf7 c8bd 5c14 203e 9809 ecbd 698f c1bd
000001e0: 2eb0 a9bd e763 a33c 95a9 83be 3288 0d3e
000001f0: c13b 263f 2a90 20be a29b 1bbe 14c2 473d
00000200: 57c8 743d c15c b53d d35c 61bd 584d 95be
00000210: 0064 4fbe e791 88bc 2589 55bd 4bfb 783e
00000220: 273e ea3f 1a05 ef3d 7035 083e bae1 1b3f
00000230: 94ac 05be 5d48 59bd adb1 2abd 46b3 1ebe
00000240: f4b0 013e b981 02bf 136e 27bd 6628 3e3e
00000250: 01ed 52be 0346 2cbe d544 8e3d 6660 983e
00000260: 77ff be3c e8a3 a43d dad5 41bd c0a7 f13d
00000270: 0d7b 633d bff7 a0bd 2f8a fcbd c677 40bd
00000280: 0a0d 513d a826 9c3c e459 123d f01b 453e
00000290: 6862 a7bc 63b2 47be 987b 5dbe ad37 51bd
000002a0: 5eea d0bd 0465 13be bf0e 02be f4ba 4ebe
000002b0: 34e1 a2bb da09 143e ee8f ad3c d71f d0bf
000002c0: a38b 823d c82f 0b3d bf45 3abd 68eb 33be
000002d0: 38bf 79bd d86e 4b3e 4e4d 313b e46a 8abc
000002e0: 054c 9d3d 973d 20bd 3070 91be 44d8 9ebd
000002f0: b424 193f 834e 44bd 9de3 09be fc3c cf3a
00000300: e9ea 493e ac07 473e d5f1 76be 9dff 143e
00000310: 2c8a d5be 43db 4cbe df72 a6bd dd58 57bf
00000320: ccc5 603e af87 8bbd cdbf 053d 02a8 c3bf
00000330: 1c94 8b3e 4a65 683d d049 f63b 69a3 70bd
00000340: cbc3 6ebc e62f 4a3d 1352 653e bf35 b7bd
00000350: 1870 c2be fcb3 023e 4d80 413e 263c 9dbe
00000360: 47ca 01bf 8744 6d3e 0a88 523d 517c 7bbe
00000370: 096b 89be 29ea c2bd 5b72 b03d e0d9 6b3e
00000380: 6296 a9bd ec60 c63d 96c0 ef3d 184c dc3d
00000390: f83d 413e 0861 cfbe fb53 9a3c 5229 1e3e
000003a0: 8c5f b83d f997 9c3e 6d59 883d ae84 06bf
000003b0: 1629 9fbc 9246 a83d fba9 1b3e 552e 2f3e
000003c0: 5ae0 c4be 2071 5e3e 3795 813d cec6 12bf
000003d0: eb04 083e 5441 173d e6a4 24be 1a1e 423e
000003e0: 489f 8a3e 97d6 953e 90e5 c43d 51cb ba3d
000003f0: 9fc1 b3bf 869a 80bd 43b2 09bd 33ab 153d
0.08250031 -0.0715173 0.06771221 0.003332453 -0.09616642 0.051890012 -0.14599246 -0.021929404
1.794367 0.06083033 0.03716885 0.093639664 -0.14679575 -0.23182048 -0.039455023 0.06753278
0.13830048 -0.8530752 -0.055411056 0.019665796 0.12620838 -0.27890363 0.17905751 0.19951978
-0.14637853 -0.024688251 0.07046251 0.049975976 0.09519246 -0.09104703 -0.006817571 0.10645536
0.04895414 -0.012396526 0.051609572 0.11769066 -0.085736685 0.016615678 0.09235274 0.008780434
-0.0316053 -0.05609493 0.03277955 0.07896923 -0.080392964 0.090464 -0.06131786 -0.42477736
-0.14697078 0.017564733 0.050732914 -0.094429575 0.085541874 0.10849324 -0.0090577025 0.07916842
0.15817001 -0.020951698 -0.12910722 -0.088779524 0.12002958 0.0070577236 0.0036773172 0.16743574
0.0834112 0.1081316 0.052817095 -0.44712707 -0.040665127 0.2985921 -0.08892523 0.24949498
1.8373052 0.058113985 0.16072482 0.43593803 -0.33721364 -0.07712357 0.08718362 -0.10796122
0.09341306 -0.3623827 0.018430125 -0.0672197 0.014290199 -0.12518296 -0.021943562 0.3440754
0.17997806 -0.09134466 0.052563824 0.14496043 0.028786624 -0.17622507 0.028332632 -0.088785455
0.14091803 0.14802712 0.25508496 0.037356675 0.1239542 -0.07532897 -0.091421194 -0.6812525
-0.11338386 -0.0637155 -0.14623216 0.06868138 0.0590923 0.025011415 -0.016028427 -0.7467221
0.23902176 -0.117475666 0.0464231 -0.36181924 -0.09812877 0.15632766 -0.11525267 -0.094511814
-0.08285557 0.019945098 -0.25715318 0.13821486 0.6493493 -0.15679994 -0.15196088 0.04876907
0.05976137 0.08855582 -0.055020165 -0.2916057 -0.2025299 -0.016671134 -0.052132744 0.2431461
1.8300217 0.11670895 0.13301635 0.60891306 -0.13054115 -0.053047527 -0.04167335 -0.15498075
0.12665159 -0.5097919 -0.04087646 0.18570098 -0.20598222 -0.16823582 0.069467224 0.29761046
0.023315175 0.08039075 -0.047323085 0.11799574 0.055537272 -0.07859754 -0.12331044 -0.046989225
0.051037826 0.019061401 0.035730258 0.19248939 -0.020432666 -0.19501643 -0.21629179 -0.051078487
-0.10200952 -0.14394003 -0.12700938 -0.20188504 -0.004970694 0.14456883 0.021186795 -1.6259717
0.0637429 0.033981115 -0.04547667 -0.17570269 -0.060973376 0.19866502 0.0027054134 -0.016896673
0.07680515 -0.039121237 -0.28405905 -0.07756093 0.5982163 -0.047926437 -0.13465734 0.0015811021
0.19718517 0.1943652 -0.24115689 0.14550634 -0.4170698 -0.20005517 -0.08127379 -0.8411997
0.21950454 -0.06812989 0.03265362 -1.5285647 0.27261436 0.05673722 0.0075161234 -0.05874959
-0.014573048 0.049362086 0.2239459 -0.08945798 -0.37976146 0.12763971 0.18896599 -0.30709952
-0.50699276 0.23170672 0.05139927 -0.24559142 -0.26839474 -0.09517319 0.086155616 0.23032331
-0.08280636 0.09686455 0.11706655 0.10756701 0.18871295 -0.40503716 0.018838873 0.1544545
0.09002599 0.30584696 0.066576816 -0.52546203 -0.019428771 0.08216585 0.15201561 0.17107518
-0.38452417 0.21722841 0.063272886 -0.573346 0.13283126 0.036927536 -0.16078529 0.18956795
0.27074647 0.29265282 0.09614098 0.09120811 -1.4043463 -0.06279473 -0.03361727 0.03654022

bias f4 [32]
00000000: 9bf1 9abc 6525 1ebc b3be 98bd 0e61 8a3e
00000010: 020f 12bd 67de a33b 859d 083e 57d9 5bbc
00000020: 72b7 d03d 698d 96bc 8b72 10be b6c2 85bd
00000030: 1792 823c 4e8a ecbc 6d1b d63c eb93 4b3e
00000040: 65d1 eb3c 684f 23bf 297b 033e fe46 20bb
00000050: 2985 ffbd 3ce1 b33d 1047 bcbd 79d2 cebd
00000060: 493e cd3d 180b 27be 99d3 82bb 53d1 263d
00000070: 9ab9 843d 5953 88bd b71b e9bc a894 853d
-0.018914035 -0.00965247 -0.07458248 0.27027172 -0.035658844 0.0050008777 0.13341339 -0.013418517
0.101912394 -0.018377976 -0.14106195 -0.06531279 0.015938802 -0.028874543 0.026136125 0.19880645
0.02878637 -0.6379304 0.1283995 -0.0024456377 -0.1247657 0.087831944 -0.091932416 -0.10098738
0.100216456 -0.16312826 -0.0039925096 0.04072697 0.06480713 -0.06656522 -0.028455598 0.065224946

weight f4 [16, 32]
00000000: 14f8 0bbe ee86 fbbd bd39 13be d31f 2abe
00000010: dfdc aebc 5f6a 2abe 60ee 9bbc b755 8d3d
00000020: a123 35bb c672 eb3d 6124 313e cf76 e6bd
00000030: 92ce 563e 61e4 cf3c bb03 94be 8299 26be
00000040: 4e4c da3d d438 443f 4b6b 9bbe b7a8 82be
00000050: 4464 01be c051 04be fcd7 013d 68f9 6c3d
00000060: b604 4dbe 9c77 f23d 160d eebd 5528 65bd
00000070: 06ab 53be 96a9 a3be 3f11 9a3d 948e 17be
00000080: 59eb 7fbe 75ff 94bd ec38 abbe aa45 98bc
00000090: b419 523e 95aa c6bd 78e3 413d 59c4 2dbd
000000a0: 6f03 84be 73ca 613d 3c7d 883e ca22 94bc
000000b0: 163b b63d a93d d93d 99ea 96bd 0990 a9bd
000000c0: b7ab 59bd 4bdc 0f3f a269 36bd 8c36 933d
000000d0: fdb6 64bd 0ae5 27be da99 dfbd 8051 7abe
000000e0: e9b8 61bd 0f5b 22bd dc60 ccbd 726e 3abe
000000f0: e74c 2fbb 5d80 60be 984c dbbd 7661 65be
00000100: e530 303e cee6 51be f8df 903d 2b63 ef3d
00000110: 07e9 eb3d 497d 1a3e 3cc9 b6bd 9aa1 c43d
00000120: 71dc 913d 51f0 2fbd b62d b13d 624f 533e
00000130: 4e69 043e b0a5 803e 6b79 263e ba0f 7e3d
00000140: c4b8 59bd 0764 febd e8ed 84c0 6797 fcbf
00000150: b8a0 fc3d b8a1 abbd 4304 fa3d 9b45 89bd
00000160: e0d7 0b3e 2a94 1bbe 2bb0 8c3d 8675 2bbc
00000170: ff44 313e 9f3e 05be 1c7c c33c 3b3d 063d
00000180: 6f6d 953d a301 3b3e 871c 7c3d dcde 353e
00000190: 0c15 833c bae7 933d 0874 7c3c f785 83bd
000001a0: 8286 cf3d 3911 40be 00e1 a0bd d08f 3c3e
000001b0: 4615 34be 9e65 263d e8c7 5a3e 3c40 e53c
000001c0: 438a cd3d 984f 5dbf 6a73 0c3d 6173 913e
000001d0: bc81 c3bd 8f99 bd3d f151 1dbe ca4b a43c
000001e0: aa63 4d3e 356f 9a3d 8400 8c3e 3686 623e
000001f0: 6f50 f93d 0f9b ca3e e52d af3c 9e8a 3a3e
00000200: 2ef6 f4bc ff77 583e c9d4 783e 87c9 3e3e
00000210: c34e a4bd f124 f93d c886 db3d 55f5 443e
00000220: 4223 5b3d ce4f e3bd 1afd 8cbd 2df2 69bd
00000230: df54 92be ca98 13be 97f6 223e b81d 603e
00000240: dd22 043e 95d7 42bf 6ed7 043e 17da 703e
00000250: 2068 8fbc 59be 393e 4ac4 813d d2ce bf3c
00000260: f63b f93d 5e0c 85be 8a62 2a3e 435e 07bd
00000270: 6c50 523e d5ff 363e 5194 423e 0395 963c
00000280: c45c 1fba 1f95 853e 3258 5d3e 60b0 7e3e
00000290: d8b2 2fbe ebbf 813e d768 bb3d e8c0 543e
000002a0: c956 073e ccf0 36be 3815 39be 84bb a53d
000002b0: c047 54be 775f 86bd 7d01 89bc a0f1 983e
000002c0: 7a10 613e 460e 26bf 949b 263e c9f6 973e
000002d0: 59ed 07be e320 263e 4aff b63a 0578 2c3e
000002e0: 0352 cc3d 0d60 8ebe b272 673e 1071 d83d
000002f0: 80f9 d4bc cd62 963e c1fc c0bd d30c 933e
00000300: 3ddf 863d 921f ea3b 5757 4bbd 66c9 c73b
00000310: 2f77 613c 2462 023e c620 05be 407c c83d
00000320: ad9a 043e 7d7b d23d ad02 433d b285 be3d
00000330: ac7c 56bd 7f58 b33d 87af 193e 1512 913d
00000340: 0e7a 95bb c5a3 37bf b003 473e 4f9c 963e
00000350: daa0 84bd 1b6c a13d 1b29 8b3c b9b3 653d
00000360: 7ef9 233e beb8 45bd 34d5 ce3d 7361 77bd
00000370: 2acc 0b3e 1737 d83e 0730 d23d 216f e53d
00000380: 8c13 133c 5321 103e a23d d5bc 481e 503e
00000390: febe 50bd 7292 543e ca4d 8e3d 4740 1dbd
000003a0: f115 5f3e 3c6c 85bd 6e0e 96be bb14 393e
000003b0: 0eb9 9fbe 413c 2abe 98bb 853e 44de 8a3e
000003c0: fae7 10bd b7eb 58bf 84c2 b63d 3fac 6c3d
000003d0: 82f1 86bd 72ba 823c 6141 c03d 6b3c d83d
000003e0: 1c81 463e 4224 85be d1d5 6e3e 3ee4 4e3e
000003f0: a9f1 343e f383 9d3e 7711 5abd aceb 953d
-0.13668853 -0.12281595 -0.14377494 -0.16613702 -0.021345554 -0.1664214 -0.019034564 0.069011144
-0.0027639645 0.11496501 0.17299034 -0.1125313 0.20977238 0.025377454 -0.28909096 -0.16269496
0.10659085 0.7664921 -0.30355296 -0.25519344 -0.12635905 -0.1292181 0.03170012 0.05785504
-0.20021328 0.1183922 -0.1162359 -0.055946667 -0.20670709 -0.3196532 0.07522821 -0.14800483
-0.24992122 -0.07275287 -0.33441865 -0.018587906 0.20517617 -0.09700505 0.04733607 -0.04242358
-0.2578387 0.05512471 0.26658046 -0.018082995 0.088979885 0.10607464 -0.07368965 -0.08279426
-0.053142276 0.56195515 -0.044534333 0.07188138 -0.055838574 -0.16395965 -0.10918017 -0.24445152
-0.055107985 -0.03963762 -0.09979412 -0.18206194 -0.0026748718 -0.21923967 -0.107079685 -0.2240046
0.17206152 -0.20498201 0.07073969 0.11688837 0.11519056 0.15086855 -0.08925101 0.096011356
0.07122124 -0.042953793 0.08651297 0.20635751 0.12930796 0.2512641 0.16257255 0.062026717
-0.05315472 -0.124214225 -4.1540413 -1.9733704 0.12335342 -0.08380455 0.12207844 -0.06702729
0.13656569 -0.15193239 0.06869539 -0.0104650315 0.17311476 -0.1301217 0.02386289 0.032773238
0.072962634 0.18262343 0.061550643 0.17760795 0.016001247 0.07221933 0.015408523 -0.06422036
0.10133077 -0.1875657 -0.07855415 0.18414235 -0.1758624 0.040624253 0.2136532 0.02798473
0.10036137 -0.86449575 0.034289755 0.2840834 -0.09546229 0.092578046 -0.1536329 0.02005567
0.2005755 0.07540742 0.27344143 0.2212151 0.121735446 0.39571425 0.021384189 0.18216941
-0.029902544 0.21139525 0.24299921 0.18631564 -0.08022835 0.12165249 0.10719067 0.19234212
0.05350042 -0.11099206 -0.06884213 -0.057115722 -0.28580377 -0.14413753 0.15914379 0.21886337
0.12903924 -0.761102 0.12972805 0.23520695 -0.017505705 0.18139018 0.06336267 0.02341405
0.1216964 -0.25985998 0.16639152 -0.03304888 0.20538491 0.1787103 0.1900189 0.018381601
-0.0006079192 0.26090333 0.21615675 0.24871969 -0.17158067 0.25341734 0.09150856 0.20776713
0.132167 -0.17865294 -0.180745 0.080924064 -0.20730495 -0.06561177 -0.016724342 0.29871845
0.21978942 -0.6486553 0.16270286 0.2968047 -0.13274135 0.16223483 0.001396158 0.16842659
0.0997658 -0.27807656 0.22602347 0.1056844 -0.025997877 0.29372254 -0.09423209 0.28720722
0.06585548 0.0071448768 -0.04964384 0.0060970066 0.013761326 0.1273275 -0.13000783 0.09789324
0.12949629 0.1027746 0.047609974 0.09302844 -0.05236499 0.08757114 0.15008365 0.07083527
-0.004561669 -0.7173427 0.19435 0.2941613 -0.064759925 0.078819476 0.016987374 0.0560796
0.16013142 -0.048271887 0.10099259 -0.06039567 0.13652101 0.4222953 0.10263067 0.11202837
0.008976828 0.14075212 -0.026030365 0.20324051 -0.050963394 0.2075899 0.06948431 -0.038391378
0.21785714 -0.06514785 -0.29307884 0.18074314 -0.31195873 -0.16624548 0.26119685 0.271227
-0.03537748 -0.8473467 0.0892382 0.057781454 -0.06589033 0.015958045 0.0938747 0.10558399
0.19385189 -0.26004225 0.23323752 0.20204255 0.17670311 0.30764732 -0.053239312 0.073203415

bias f4 [16]
00000000: 5c29 33be 0154 0ebe 719f 463d 80bd 0c3e
00000010: f97a 5c3e f238 c73d 5e6d 8f3c 12f2 8d3e
00000020: ddb6 493e 8a80 783e cf56 8a3e 5403 a4bd
00000030: d1f6 a83d 07e2 fa3d e128 78be 5fdf 8bbe
-0.17496246 -0.13899232 0.0484919 0.13744164 0.21531285 0.09727658 0.017508205 0.27723747
0.19698663 0.24267784 0.27019355 -0.08008447 0.082502015 0.122501425 -0.24234344 -0.27318856

weight f4 [1, 16]
00000000: a769 4bbe 7cd6 37be 2af2 0bbf 15d8 633e
00000010: 78a8 7c3e 5c0d 423e 8120 853e d094 7f3e
00000020: 9c21 213e cab5 2a3e 1234 063e 3452 7bbe
00000030: e75f f3be e56d 11bf aad2 63be 7957 9dbe
-0.19864522 -0.17952913 -0.5466639 0.22250398 0.2467364 0.18950409 0.2600136 0.24959111
0.15735477 0.1667091 0.13105801 -0.24543077 -0.47534105 -0.5680831 -0.2224833 -0.307308

weight f4 [16, 1]
00000000: 4697 e7be 6eda 73bf 8fcc e63e 9415 0f3f
00000010: cb65 6c3f aed2 6fbf bd32 813f 42d8 3b3f
00000020: a227 46bf 7901 e13e ce50 1bbf 0e05 f83e
00000030: 3bbc 543f a5de 7ebd d253 38bf 8a8d 2bbf
-0.452326 -0.9525517 0.4507794 0.558923 0.92342824 -0.93680847 1.0093609 0.7337686
-0.77404225 0.43946436 -0.60670173 0.48441356 0.83099717 -0.06222405 -0.720029 -0.67012846

bias f4 [16]
00000000: 6f57 3a3f 6203 8cbf 5de6 bbbd c459 3dbf
00000010: fd33 0fbc ba49 51be ba0b ccbf 469f 42bf
00000020: 13c1 71bf 3d75 9cbf 86a5 8b3f be07 91bc
00000030: 451a e23d 0626 8c3f 88d0 79bf 727a 50bf
0.72789663 -1.0938532 -0.09174798 -0.73965096 -0.008740422 -0.2043828 -1.5941079 -0.7602428
-0.9443523 -1.2223278 1.0909889 -0.017703887 0.11040167 1.0949104 -0.9758382 -0.81436837

weight f4 [32, 16]
00000000: 8fb5 183f e7ed f53b d9e0 903e acef f23d
00000010: 91cc 22bf 3beb 83bc c00d 78be dcc1 efbd
00000020: 78dc 1abd a75f ecbe 1471 b13e 1572 f7be
00000030: 6ae9 11be 86bd 563d fe19 bc3d 390e 82be
00000040: 3561 5ebf eff5 6dbd e61e 95bb 099c 8fbe
00000050: 5f54 8d3e af10 fdbd c49f 49bf 789d 1e3d
00000060: d71a b6be 6122 b5bd 010c 13be 108c f9bd
00000070: 5f3e 91bd 39a8 b83e 1bb3 99bd d335 adbb
00000080: 2377 69bd a8e6 483e 45b8 5cbd 6602 52be
00000090: 0b15 b83d ad9d 2d3e a8c8 18bf 0f55 453d
000000a0: f44f 68be e670 f23e ffb5 2fbe 59bd bdbd
000000b0: dae2 2e3d 6ec0 a13d f03a 713d b774 91bd
000000c0: 6959 e53e d35d cc3e ba8a 633e 57ec 5f3f
000000d0: 999f c5bf 1710 3a3f 0d5d c73e ee88 c43e
000000e0: 5945 a2bc 0e44 163e 0c0e 923e cd1d 98bf
000000f0: 53bd 10bf 87a2 4fbe 04d0 a63e 74cb 103d
00000100: 725f 4abf 6c40 cebd f6a1 313e cf70 eebe
00000110: 4884 8e3e 1bdc 293c db9a 52bf 0f6d 26be
00000120: b1ec aebe 0cff f9be 0c29 333e a8bf c03c
00000130: 3aff e83c 7cb2 b3bc a991 d9be 4ee6 523c
00000140: 69ba 32be 08cd 85bc cd14 df3c f936 933e
00000150: 8570 f93b 950e edbb 9e15 853e cd53 953e
00000160: 83dc 953e afa7 253f eeb2 1ebf ac56 373e
00000170: 5029 283c 1881 2cbf 6c7b 963e ea20 53bd
00000180: 6db7 79bf f2c8 debe 7631 5a3e 8d9a cb3e
00000190: ad8d 0d3f 6320 dfbe decd e83e f375 dc3e
000001a0: 83e4 01bf fe54 3cbe 5381 6ac0 78d9 963e
000001b0: 4107 a33e 4f36 29be 5862 01bf 0528 1ebe
000001c0: c224 37bf de5b dabe 0db3 853d bc12 19bf
000001d0: f1b6 f1bc 890e 4e3d 6e64 babf 59fa d93d
000001e0: 6348 bdbc 7a32 9abd 9045 cd3b 31ba 8f3d
000001f0: 2c68 cf3d 4277 ce3e 4f94 523d 71b0 c4be
00000200: 5a17 46bf 84c5 c3bd 4f40 d53d 2ead eabe
00000210: 4bee fdbd 91dd f5bd a3b7 36bf f960 663d
00000220: 48bc 953d 0a9a 3abc d4c7 6fbe defa 333e
00000230: 2161 c93c fa0d c23e 9718 93bd 9df6 adbe
00000240: 150c a53f d688 bcbe cfd5 a5be c9a5 a8c0
00000250: 3559 93be fb62 133e dfdb fdbe b0a7 d6bf
00000260: 3bc6 08bf 5a90 aabf b094 803f 0b64 38be
00000270: cb70 f4bd a9e4 8f3f 1432 28bf 8d13 0abf
00000280: 4d6f 0fbf 3a90 9f3d b7ea 1f3e 3474 16be
00000290: 4b3f 963e ab3b f7bc 2803 f0be 31c6 5fbe
000002a0: 3df2 48bd 4e72 0ac0 3a2f b6be 7ea2 5c3e
000002b0: ef18 543e 2fc8 073e 4858 86be 4ec4 7eba
000002c0: 767d 8cbf 3908 04bd a7cc 103e af50 48bf
000002d0: c980 17bd d21c fb3d e1a4 e8bf 6826 e73e
000002e0: 27a3 2ebe 843f 7a3f 3f06 95be 7eb2 a33e
000002f0: 2b9b 203e c56c 543e 1502 2eba 4837 99be
00000300: fa01 49bf aec2 2e3d f0e3 653d 9c6a 23bf
00000310: f4ec febc 78ec a0be de66 52bf cab9 383e
00000320: eb90 0ebe d29c 183c 2fea c2be 4c1f 05be
00000330: 8962 473e 3212 653e 2afa cabe 99f9 ebbd
00000340: 1888 65bf f933 97bd 9428 983e 2417 54bf
00000350: 179f 3c3e 106e 00be 2fde febf 48cb babe
00000360: 6c39 9dbe 7e29 3d3f 11a1 95be 63f1 8c3d
00000370: c237 3c3e 973f e73d 5207 4dbd 6909 583c
00000380: 4d0b e3be e99e 9a3c d322 913d 8bab 32be
00000390: 5ce7 41bb 80b0 61be 0c93 87be ba33 0c3f
000003a0: 9352 f1bd 44dc 173f 70ba dbbe 6bf3 263e
000003b0: f5d0 5f3e cb8d a0bd 60bc 4ebe 0662 95bc
000003c0: 2e95 2f3f d5a8 6bbe 5f80 4d3e 67ee a3c0
000003d0: 3e47 54be 1231 d8be 9507 28bf fab3 17bf
000003e0: 43a5 b7be fbbb 5fbf e091 e83e c0f7 b73d
000003f0: 7d61 733e a9be 1e3f ec16 bbbd 115c 6abe
0.59652036 0.007505167 0.28296545 0.1186212 -0.63593394 -0.016103378 -0.24223995 -0.117068976
-0.03780791 -0.46166727 0.34656584 -0.48329225 -0.14249197 0.052426837 0.09184645 -0.25401476
-0.86867076 -0.05809587 -0.0045508025 -0.28048733 0.27603433 -0.12356698 -0.7875941 0.038724393
-0.35567352 -0.08844448 -0.14360048 -0.12184918 -0.070919745 0.36065844 -0.07504865 -0.0052859574
-0.056998383 0.19619238 -0.05388667 -0.20508727 0.08988389 0.1695468 -0.5968118 0.04817682
-0.2268675 0.4735176 -0.1715927 -0.09264631 0.04269681 0.07898031 0.058894098 -0.0710234
0.44794777 0.39915332 0.22220889 0.8747 -1.543933 0.726808 0.3893818 0.3838572
-0.019808458 0.14674398 0.28526342 -1.1884094 -0.56538886 -0.20276843 0.32580578 0.035350278
-0.7905189 -0.10070881 0.1734694 -0.4657044 0.27835298 0.010367419 -0.8226754 -0.1625254
-0.34164956 -0.48827398 0.17496127 0.023528889 0.028442014 -0.021935694 -0.42493942 0.012872292
-0.17453922 -0.016333118 0.027231598 0.28752878 0.0076122903 -0.0072344043 0.25993055 0.29165497
0.292698 0.6470899 -0.61991775 0.17904156 0.010263756 -0.6738448 0.29391038 -0.05154506
-0.9754551 -0.43512684 0.2130793 0.3976635 0.55294305 -0.43579397 0.45469564 0.43058738
-0.50739306 -0.18391797 -3.6641433 0.2946279 0.31841472 -0.16524623 -0.50540686 -0.15444954
-0.7154046 -0.42648214 0.06528292 -0.5979421 -0.029506179 0.05030683 -1.4561899 0.10643453
-0.023105806 -0.07529159 0.006264396 0.07017935 0.10127291 0.40325361 0.05141097 -0.38415864
-0.7737938 -0.095591575 0.104126565 -0.4583525 -0.123989664 -0.12005151 -0.7137396 0.056244824
0.073113024 -0.011389265 -0.23416072 0.17576167 0.024582447 0.37901288 -0.071824245 -0.33977214
1.2894312 -0.36823148 -0.32389686 -5.2702374 -0.28778997 0.14393227 -0.4958181 -1.6769924
-0.53427476 -1.3325303 1.0045376 -0.18006913 -0.11935576 1.1241657 -0.65701413 -0.5393608
-0.56029207 0.07791181 0.1561688 -0.14692765 0.29345164 -0.03017982 -0.46877408 -0.21852948
-0.04905914 -2.1632266 -0.35582906 0.21546361 0.20712636 0.13259958 -0.26239228 -0.0009718583
-1.0975788 -0.032234404 0.14140569 -0.78248113 -0.036988053 0.122613564 -1.8175317 0.4514649
-0.17054425 0.9775317 -0.29106328 0.31972116 0.15684192 0.20744617 -0.00066378835 -0.2992499
-0.7851864 0.04266613 0.05612558 -0.6383455 -0.031118847 -0.3143041 -0.8218821 0.18039623
-0.1392247 0.009314733 -0.38069293 -0.1300022 0.19471182 0.22370222 -0.39643985 -0.11522216
-0.8966079 -0.0738296 0.2971846 -0.8284781 0.18420063 -0.12541986 -1.9911555 -0.36483216
-0.30707872 0.7389144 -0.29224446 0.06881978 0.18380645 0.11291426 -0.05005581 0.013185837
-0.4434456 0.018874602 0.0708672 -0.17448251 -0.0029587364 -0.22039986 -0.26479375 0.5476643
-0.11783328 0.59320474 -0.42915678 0.16303794 0.21857055 -0.07839545 -0.20189047 -0.018235218
0.68587005 -0.23013623 0.20068501 -5.122852 -0.20730302 -0.42224938 -0.6563657 -0.59259
-0.35868272 -0.8739621 0.45423794 0.089828014 0.23767658 0.62009674 -0.091352314 -0.22886683

bias f4 [32]
00000000: 024b a73e 99bf ce3e 5424 3dbd 5070 49be
00000010: 8180 813e 055a 16bf f686 f6bd 96ab 933d
00000020: 1971 bd3e 3b12 723f b556 623d 3e60 01be
00000030: a55f e13e 07bd 8c3e 2099 43be 17c9 7c3e
00000040: 7c8b 1a3f 72c0 1c3f 5a3a c1bc 2d9e 393f
00000050: bd5d da3c 3801 273e 48f9 573e cefc f6bd
00000060: f666 b13c 0a3f af3a 02d7 be3e cd8d eabc
00000070: 8c14 89bc ab85 8cbe 23ab 0cbe 4355 91bd
0.32674414 0.40380552 -0.046177223 -0.1967175 0.25293353 -0.5873111 -0.120374605 0.07210462
0.3700035 0.9455907 0.05525847 -0.1263437 0.44018283 0.27487966 -0.19101381 0.24686085
0.60369086 0.6123115 -0.023587395 0.7250698 0.026656026 0.16309059 0.21091187 -0.120599374
0.02165554 0.0013370228 0.37273413 -0.028632069 -0.01673343 -0.2744573 -0.13737158 -0.070963405

weight f4 [64, 32]
00000000: 736a 1bbd 2fa2 bc3e 34a1 c23c 3425 2a3e
00000010: 5bf9 473f 40ba f43d 79e9 22bf 14ed 3a3f
00000020: c523 2f3e 5cd3 4abf 93c3 9abe fd0f aa3f
00000030: a7ad c43e ffcf a13e cc34 2cbe 7ba4 1cbf
00000040: ce33 243e a17d bc3d 14fa 513f 6d60 c7bb
00000050: f84e 35bf 4556 de3e 2415 9a3e fd53 f23d
00000060: aa72 9abe b7dc 2a3d cf72 993e a5ad d6be
00000070: 134f 0cbf 253f 6d3e 4205 193e b6fd c8bd
00000080: 6b66 b4bf a58c 8a3e f113 c53d 0371 b03d
00000090: 4be2 c23e f498 e53b 57e8 febe b2a9 f23e
000000a0: 8b11 fe3d 997b c7be db95 9ebd 5fa6 8f3f
000000b0: 8d32 6a3e da38 a73e a05d e4be 0e85 0cbe
000000c0: 3a75 a13e a321 c63d 94db 8b3e 5480 85bc
000000d0: 4d56 26bf ba04 603d 37fc 253e 3a1c 2bbe
000000e0: 56c6 8abf 0e72 14be 72ca 4c3e 3d2d 8dbd
000000f0: dcae abbe 881e 07be 0389 b4bd b275 043d
00000100: 46f9 773f e43b a4be 7e71 97be 2edb a33f
00000110: a6f2 0abf 0f2b bcbd 993f 9ebe 2ad2 94be
00000120: 0bb0 6bbe c7c7 353d f185 0d3d 7b5b fabd
00000130: 35a6 84bf 71ce cf3e 52eb e3be 5a5c 103e
00000140: 41a7 7cbe dd20 48be 7d61 abbd 1501 f9bd
00000150: 8598 a2bd c793 ce3c 746d 873e 6c14 bfbe
00000160: 9fb0 693f 1161 a9bd 7db1 0abe de91 a9be
00000170: 77d6 8fbe 78d1 053c 762f a43e 3209 263d
00000180: bbc2 acbf cc58 9f3e 8b9f 2bbd 6b02 fabd
00000190: d468 8e3e 74e4 c53c 5530 08bf 0278 883e
000001a0: 1c0c a93e a0f9 88be c317 05bd 75f8 863f
000001b0: c75e ca3e a94a 893e 8ae3 7abe 68c7 a5be
000001c0: 404b 9a3e 7c3d 6e3d 56ba b03e abcd 113d
000001d0: a6c9 0fbf 2c7a 183e 3bb2 a63e 6444 d2bd
000001e0: d51a aabf c7b0 7abe af07 d43e 5fdd a7bd
000001f0: de6a 19bf b670 47be 704c 50be 1b1e 113d
00000200: 2cdf e83e d3ae 633f 651c 2cbe f6e9 333e
00000210: 4367 573f a680 5c3f d168 603c 6558 983f
00000220: 9686 6a3f c97c 05c0 7675 99be 7bc1 f03f
00000230: b146 ae3f 424d bb3f c184 093e c705 f1bf
00000240: 25c7 983e d9b6 b8be 042d f63e 8ff0 dbbe
00000250: 9b86 043e 9864 a73e f516 59be f825 2b3e
00000260: ac00 043f b84c 17bd 9c9a ea3e 7dbe cfbd
00000270: 7cd1 a43e 1965 9cbd c5c4 1b3e 8189 a63c
00000280: 6b76 82bf df0a c93e 328b e23d 1274 53be
00000290: 43e7 9e3e 95b3 443b bc91 25bf bb75 fc3e
000002a0: 22e2 ad3e 152e 79be 3cea 6d3c cd3d a13f
000002b0: f358 d03e 52c9 b63e 7df9 d2be b320 a2be
000002c0: e792 273e a4c4 d93d a3bd 1f3f 1cef 793c
000002d0: bbcd 24bf a8b6 613e 5911 a23c da47 20bc
000002e0: 46f6 a6bf c764 93be 52c9 c13e 1f80 b8bd
000002f0: f1e4 babe b2ac 81bc 5583 553a f334 733d
00000300: 5402 113f fb33 3dbe 8325 ff3c 81d8 3d3e
00000310: 7746 2cbe b656 d7bd 5560 94be 6378 f0bd
00000320: d399 efbd 18b3 193e 62cc 263f 00e0 15bf
00000330: 1720 0dbf f4d5 0d3f 5436 a93c ca51 753e
00000340: 625e f9be 164d dd3d 0a8d 933d a478 5ebe
00000350: d637 cabd 93d8 e93c c05d e7be 16da 4fbd
00000360: 471c 383f 35ac 84bf 272d c33d 905d 28be
00000370: 0fdc 85bc 8054 d83c 82ea d53d 735c 403e
00000380: 0832 073f 8478 7b3f 71b7 45be e95b bb3d
00000390: bf44 6d3f e4c8 b03e d6a2 5a3e 9b9b a03f
000003a0: a6e4 873f c7be f9bf 6bc1 d4be ebf6 0240
000003b0: f7a0 c23f 7307 b43f 40ed a53e 96cc f8bf
000003c0: 2acc c23e db41 09bf 27c7 db3e 0bed 36bf
000003d0: ba2a 3c3d 45f0 da3e 1c96 44be cfb1 b0bd
000003e0: b8a2 f23e 0311 3e3b c1f0 403f 7ef4 5a3d
000003f0: 3ea9 6f3e df05 6abd e0fe 45bd 4c5b cd3d
-0.037943315 0.36842486 0.023758508 0.16615754 0.7811486 0.11949587 -0.636375 0.73018
0.17103489 -0.7922876 -0.30227336 1.3286129 0.38413736 0.31604 -0.16817015 -0.6118848
0.16035387 0.09203649 0.82022214 -0.006084493 -0.7082362 0.43425193 0.30094254 0.11832426
-0.30165607 0.041714396 0.29970405 -0.41929355 -0.5480816 0.23168619 0.14943412 -0.098140165
-1.4093755 0.27060428 0.09622944 0.08615305 0.38063273 0.007006759 -0.49786636 0.47395092
0.1240569 -0.38961485 -0.077434264 1.1222647 0.22870846 0.32660562 -0.4460268 -0.13722631
0.3153475 0.096743844 0.27315962 -0.016296543 -0.64975435 0.054692008 0.16209494 -0.16709986
-1.0841777 -0.14496633 0.19999102 -0.06893394 -0.33531845 -0.1319524 -0.088151954 0.032338805
0.96864736 -0.32076943 -0.29578775 1.2801263 -0.542765 -0.091879 -0.30907896 -0.29066592
-0.23016374 0.044379976 0.034551565 -0.1222448 -1.0363222 0.4058719 -0.44515473 0.1409773
-0.24673177 -0.19543786 -0.08368204 -0.121584095 -0.07939247 0.02521695 0.26450694 -0.37320268
0.9128513 -0.08270467 -0.13544269 -0.331191 -0.2809331 0.008167617 0.3206746 0.040536113
-1.3496927 0.31122434 -0.0419002 -0.122074924 0.27814353 0.024156787 -0.5319875 0.2665406
0.3301705 -0.2675295 -0.032493364 1.0544573 0.39525434 0.26814774 -0.24500862 -0.32378697
0.30135536 0.058164105 0.34517163 0.03559653 -0.56167066 0.14890355 0.32557854 -0.10266951
-1.3289438 -0.24481498 0.41412112 -0.0819652 -0.5992869 -0.1947659 -0.20341659 0.0354291
0.45482767 0.88938636 -0.16807707 0.17569718 0.8414194 0.861338 0.013696865 1.1901976
0.9161161 -2.0857413 -0.29972428 1.8809046 1.3615323 1.4632952 0.13429548 -1.8829888
0.29839435 -0.36077002 0.4808122 -0.4295697 0.12941973 0.32693934 -0.21200164 0.16713703
0.51563525 -0.0369384 0.45821083 -0.10143755 0.32191074 -0.0763647 0.1521178 0.020329239
-1.0192388 0.39266106 0.11061706 -0.20649746 0.31035814 0.0030014266 -0.646755 0.4930857
0.33961588 -0.24333985 0.014521178 1.2596985 0.40692863 0.3570047 -0.4120597 -0.31665573
0.16364633 0.10633209 0.6239874 0.015254762 -0.6437642 0.22042334 0.019783663 -0.009782756
-1.3043907 -0.28787825 0.37848908 -0.09008812 -0.36502793 -0.015829418 0.0008144875 0.05937667
0.5664418 -0.1847686 0.031145817 0.18539621 -0.16823755 -0.10514586 -0.28979746 -0.11741712
-0.116992615 0.15009725 0.65155613 -0.5854492 -0.5512709 0.5540459 0.020655788 0.23956981
-0.4870482 0.108057186 0.072046354 -0.21725708 -0.09873931 0.028545653 -0.45188713 -0.050745092
0.7191815 -1.0365053 0.095300965 -0.16441941 -0.016340284 0.02640748 0.104451194 0.18785267
0.52810717 0.9823077 -0.19308259 0.0914839 0.92683023 0.34528267 0.2135118 1.2547487
1.0616653 -1.9511346 -0.41553816 2.0463207 1.5205373 1.4064773 0.3240757 -1.9437435
0.3804639 -0.5361611 0.4292538 -0.7145545 0.045939185 0.42761436 -0.19197887 -0.08627664
0.4738977 0.002900184 0.7536736 0.053455822 0.23404405 -0.057134505 -0.04833877 0.10027179

bias f4 [64]
00000000: be75 db3d 2069 2a3e 605f 04be b3be 91bb
00000010: 5bc3 acbe 4656 923d addc 21be babd 9abe
00000020: 469b d43d f37b e4be 3b8d 8b3c 4574 333e
00000030: 0f20 a93d e9bf 12bf 15c0 933e cc61 be3c
00000040: ff62 f3be 7a7a fdba 6368 393d a922 493e
00000050: 1b79 963e 3a96 20bf 4833 493e 570b a23d
00000060: 1b55 553d e69e a5bd 33d2 fe3d 3047 043e
00000070: c853 9f3e 7e19 79bd ede4 ae3d 4fb6 4c3e
00000080: 4d46 b7be abe9 3fbe 5d32 f13d 90f7 043e
00000090: 4641 8d3e 5780 f03d c9f3 7bbd 1792 9f3d
000000a0: bf3c 963d 2363 523e 200d 973e 0329 f0bd
000000b0: 3601 9a3d 2ca1 103e f1f6 1a3e 25ba 99bd
000000c0: 3178 093e f373 86bd 807e 97be 78a8 a93d
000000d0: 3c7f c73d 569a ab3d 4b5e 873d a38a 02bf
000000e0: 522a 5d3e 1728 2a3e a84e 8b3d fff7 dcbd
000000f0: d2c4 643e 399d 13bf 454a d3bd 0323 8abb
0.10715817 0.16641665 -0.12927008 -0.004447782 -0.33742794 0.071453616 -0.15806837 -0.30222875
0.103811786 -0.44625816 0.017035117 0.17524822 0.08258068 -0.5732408 0.28857484 0.023239993
-0.47536466 -0.0019338869 0.045265567 0.19642128 0.2938927 -0.6272923 0.19648468 0.07912319
0.052083116 -0.08086948 0.12442436 0.12917781 0.31118608 -0.060815327 0.08539758 0.1999142
-0.35795823 -0.18741481 0.11777184 0.12985063 0.27588862 0.11743229 -0.06151179 0.07791536
0.07335805 0.2054563 0.295022 -0.11726572 0.07519762 0.14123982 0.15133263 -0.075062074
0.13424756 -0.06565084 -0.295887 0.08284086 0.09741065 0.083790466 0.06609782 -0.5099279
0.21598175 0.16616856 0.06802112 -0.10789489 0.22340706 -0.5766178 -0.103169 -0.0042155995

weight f4 [3, 64]
00000000: 5e47 23c0 3542 b1bf edbb 6b3d 7c50 01c0
00000010: 7ed1 4bbd 85e2 0dc0 6ec3 e8bc c723 7abd
00000020: f886 25c0 2923 57bd 3abb 3cc0 65a1 6ebd
00000030: eb25 a63d 668f bcbd 2f76 1ec0 de68 fcbf
00000040: 40b6 78bc 7f81 a4bc 9b0d 1e3d 7e8a 9c3e
00000050: a94f e7bf 8766 d6bd e35c 4abf 0065 7f3b
00000060: 54f2 1cc0 4c51 b0bc bea0 1cbf f5e6 9dbd
00000070: b319 2ac0 dea7 37be 8839 00c0 ac2c f1bf
00000080: 2045 3fbd cc20 24bf 2d0a 30c0 1dee dabc
00000090: 0954 2bc0 ee78 bdbf 85fc d2bf 4ccc 13be
000000a0: 06e4 1ec0 d89a 5bbd 52cb ecbc bcb9 143f
000000b0: a271 c0bf 0251 17c0 b57b cbbf c675 60bd
000000c0: b2ca 1ac0 c05a ac3d 8b71 113f 80e2 c43c
000000d0: e0e5 d4bf a4dd a63c 2764 efbf d69c d9bd
000000e0: e9d2 37bd 6a0b 1dc0 01f7 1ebd 44a6 cc3e
000000f0: 66c3 04c0 d8cf bcbd f532 093e 6e1d 1cc0
00000100: 8dca 613e 14dd 473e 1586 58bf 70aa 5a3e
00000110: cc8a 4ac0 b047 833e a8c9 e2be a829 58c0
00000120: 31eb 353e 25e7 5bc0 7e99 893e dd27 e7be
00000130: e734 0c3f 20ed 75c0 17c2 e33d a4eb 8e3e
00000140: 5511 3cc0 ace8 ef3d 64ed 6d3f 25ce 88be
00000150: 6350 04be 8c41 9ec0 7850 5b3e bd2a 1bbd
00000160: d44d 063e 5ba7 f03e 742f fcbe 0272 f1be
00000170: 6c8b bc3d 367e 033f 9d58 b5bd 987b c53d
00000180: f0ad a4c0 3500 393d 6577 933d 4d15 0e3e
00000190: 2d3e ea3d a218 093e 17ab 2cbe fcdc 8abe
000001a0: b730 063e 7d58 d1be 9474 ac3f 061e c6bf
000001b0: b9df 8f3e e051 563d 4d7c a43d 54ec 12bf
000001c0: cd0c 483e 4381 873e a1c6 03c0 bef7 bd3e
000001d0: f373 493e 2ab8 e7be 8952 c43d 66f4 6bc0
000001e0: f6b7 ccbe 9d47 0a3e 59a9 9dbe ff2c 27c0
000001f0: 1434 11bf 23bb 34c0 1390 5d3e e901 8b3e
00000200: 8cc8 093d 210f 38bd 9ba7 37bd 6374 b4bd
00000210: c7cd 58bc e220 ef3d 8345 e4bb 058d 2fbd
00000220: 77be 62bd 30a8 2b3c 64b2 6dbb a9fb 39bd
00000230: 88e9 8d3d 7128 cfbd 78a1 613d b7c3 863d
00000240: adbb 943d 99e6 3b3d 37a0 d23b 4b3c 57bc
00000250: 3f8f 87bd a4ce acbd c27a 9ebd c072 c9bd
00000260: 131c ddb8 c716 ad3c 0bcf 513d 6a76 7c3c
00000270: ad2a 183d 3bd1 703c 3d33 353d 09ca edbc
00000280: 4d40 743d 2ffd ec3d 96aa c3bc 159a 6cbd
00000290: 8408 a3bd 1020 dd3d 609d 1a3d 19ed ae3d
000002a0: db74 a1bc 5a0d a33d ab03 a03c 2e68 6a3b
000002b0: 1231 533d 1c7e f53d aeb8 8abd 495c d7bd
000002c0: a8c2 923d e3f5 20be dc06 df3c fcc1 a63d
000002d0: 41fd 4cbd 7c93 793d d5c6 0cbd fdfe 37bd
000002e0: aa57 ddbc 97b2 53bd cedc 9dbd d5a0 b33c
000002f0: b9b4 6ebc 0794 ee3d bc30 da39 404e 97bd
-2.551231 -1.384833 0.057552267 -2.0205374 -0.049760334 -2.2169507 -0.0284135 -0.061069276
-2.5863628 -0.052523766 -2.9489274 -0.058259387 0.08112701 -0.092070386 -2.4759634 -1.9719503
-0.015180171 -0.02008128 0.038587194 0.3057441 -1.8071185 -0.10468774 -0.79047984 0.0038970113
-2.4522905 -0.02152314 -0.61182773 -0.07710067 -2.6578186 -0.1793513 -2.0035114 -1.8841758
-0.046696782 -0.64112544 -2.750621 -0.02672487 -2.677004 -1.480253 -1.6483313 -0.14433402
-2.4826674 -0.053614467 -0.028905544 0.5809591 -1.5034678 -2.3643193 -1.5897127 -0.054799818
-2.4186215 0.08415747 0.5681388 0.024033785 -1.6632652 0.020369358 -1.8702439 -0.10625617
-0.044878874 -2.4538217 -0.03880978 0.399706 -2.0744262 -0.092193305 0.13398345 -2.4392962
0.22049923 0.19517928 -0.8457959 0.21354079 -3.1647215 0.2564063 -0.44294477 -3.3775425
0.177655 -3.435983 0.26874918 -0.451476 0.5476822 -3.842598 0.11121004 0.27914155
-2.9385579 0.117143005 0.92940354 -0.26719776 -0.1292129 -4.9455013 0.21417415 -0.037882555
0.13115627 0.47002682 -0.49254954 -0.47157294 0.0920628 0.5136446 -0.08854792 0.09642714
-5.1462326 0.045166213 0.07200507 0.13875313 0.1143764 0.13388303 -0.1686214 -0.27121723
0.1310452 -0.40887824 1.3473077 -1.5477912 0.28100374 0.052324176 0.08031521 -0.5739186
0.19536133 0.26465806 -2.0589983 0.37103075 0.19673137 -0.45257694 0.09586055 -3.686792
-0.399841 0.13503881 -0.30793265 -2.6121213 -0.5672009 -2.823922 0.21636991 0.27149895
0.033638522 -0.044936303 -0.044837575 -0.088112615 -0.013232655 0.11676194 -0.0069662943 -0.042859096
-0.055357423 0.010477111 -0.003626966 -0.045406017 0.06929308 -0.101151355 0.05508563 0.065802984
0.07262359 0.045874212 0.0064277905 -0.013136934 -0.06619119 -0.08437851 -0.07738258 -0.0983634
-0.000105433304 0.021129025 0.051222842 0.0154090915 0.037150074 0.014698322 0.044238318 -0.029027002
0.059631635 0.115717284 -0.023885053 -0.05776413 -0.079606086 0.10797131 0.03774774 0.085413165
-0.019709041 0.07961531 0.019532999 0.0035767662 0.05156047 0.11986944 -0.06773506 -0.10515649
0.07166034 -0.15718798 0.02722495 0.08142468 -0.05004621 0.060931668 -0.03436931 -0.04492091
-0.02701934 -0.05168399 -0.07708131 0.021927277 -0.014569455 0.11649328 0.0004161651 -0.07387972

bias f4 [3]
00000000: 3a01 913d 12d7 2dbe 0c86 94bc
0.07080312 -0.16976574 -0.018130325
