biased_simulations/iter_2_biased/1/umbrella.pt (torch, 51305 bytes, 17 tensors)

norm_mu f4 [3]
000000 bc 2d 17 bd 63 17 eb 3e 38 71 0b ba
       -0.03690885 0.4591628 -0.00053193

norm_std f4 [3]
000000 a1 d9 aa 3d 25 da 32 3d 6b 8d 17 3d
       0.08342291 0.04366507 0.0370001

weight f4 [64, 3]
000000 46 69 c2 bc 11 75 92 be 0d 82 1e 3f 45 1d 38 be
       -0.023731839 -0.2860494 0.6191719 -0.17979915
000010 ca 67 c3 be 6b 33 3c 3f 07 e8 7c be eb e2 da be
       -0.38165122 0.7351596 -0.24697886 -0.4275125
000020 ca 24 31 3e fb 81 7c be ff 89 c5 3d 79 15 80 bf
       0.1729919 -0.24658959 0.09645461 -1.0006553
000030 5f b5 af 3e fc 08 e0 3d 93 33 d9 3e 0b d2 d0 be
       0.34318063 0.10939214 0.4242216 -0.4078525
000040 bb 78 8f bd 9b ed 85 be b2 8d 3d 3e 3e 87 f6 3e
       -0.070054494 -0.2615784 0.18511084 0.48150057
000050 01 b5 c0 3d f5 91 ca 3c 81 76 ab 3e 07 88 c8 be
       0.09409524 0.0247278 0.3348885 -0.3916628
000060 a3 a3 78 bd 97 ab b8 3e 74 45 1b bf 54 56 37 bf
       -0.06070293 0.36068413 -0.6065285 -0.716161
000070 4c 7d dd be 47 43 98 3d 92 aa 08 3b b0 4f 1a be
       -0.43259656 0.07434707 0.002085362 -0.15069461
000080 76 5c ec 3c e8 fe 0e 3f 96 12 87 3e 99 00 80 3f
       0.028852683 0.55857706 0.26381367 1.0000182
000090 c2 70 1a 3e eb cd 9b 3e 6e 82 71 bf d8 e3 84 3e
       0.15082076 0.3043054 -0.94339645 0.2595508
0000a0 ca 41 a2 bd 8a 97 4f 3f 89 3a 2d bf 36 9f bf be
       -0.079227045 0.81090605 -0.6766744 -0.37426156
0000b0 72 24 1d be 5d 7b b8 3d cb b5 45 be 4b dd 0a 3f
       -0.15345934 0.09007905 -0.1930763 0.54243916
0000c0 58 00 ab bd c8 13 ba 3e f5 b3 27 bf 2a 62 5d be
       -0.08349675 0.36343217 -0.6550897 -0.21619478
0000d0 fa f7 58 3e 97 4d 76 3e 9b 05 84 be d9 1f d8 be
       0.21188346 0.24053036 -0.25785527 -0.42211798
0000e0 c6 b2 7b 3d 58 36 76 3c 9f 3d 32 3e f6 f0 28 bf
       0.06144979 0.015027605 0.17406319 -0.6599268
0000f0 04 17 aa 3e cc 2a 11 3e 6b 68 7c 3f a1 34 9e 3e
       0.33220685 0.14176482 0.9859683 0.30899528
000100 2a 52 27 bf bb 9a ea be a2 c2 2f 3e 10 2f 20 3f
       -0.6535975 -0.45821175 0.1716409 0.6257181
000110 99 91 54 bf 82 c3 ca be c6 e1 04 be 85 c4 ed be
       -0.83034664 -0.39602286 -0.1297675 -0.46438995
000120 04 5a 8c be 16 7f 0a 3d 8e 71 22 bf af c5 92 be
       -0.27412426 0.033812605 -0.6345452 -0.28666446
000130 65 15 35 3e ee d5 d0 3e 51 cf 3a be d9 e2 e4 be
       0.17683943 0.40788215 -0.18243147 -0.4470432
000140 7f 63 ac 3e 6d 98 a9 3e c7 89 ef 3e a8 fd ba 3e
       0.3366966 0.33124104 0.46784803 0.3652165
000150 54 f9 e4 bd 8d 28 f1 3e 4b 60 35 3f 26 dc 09 3f
       -0.11180368 0.4710125 0.70850056 0.53851545
000160 8d f5 e8 3d 83 17 b0 bc 94 3e 8e be 1e e5 82 3e
       0.1137496 -0.021495586 -0.27782118 0.25565428
000170 52 a5 d2 3c 27 db a5 3e 05 4f c3 be 7b 94 23 bf
       0.025713596 0.32393762 -0.38146225 -0.6389844
000180 a3 29 60 be 7c 99 82 3d c6 1d 36 bf 8c bc d5 be
       -0.21890883 0.06376931 -0.7113918 -0.41745412
000190 86 fd b2 bd 0f 95 98 3e ba e4 db bd f3 f3 38 bf
       -0.08739762 0.29801223 -0.107369855 -0.72247237
0001a0 e4 eb f0 3e 87 e4 aa be 7b 6c f2 bd 4f 3e 68 3e
       0.4705497 -0.33377478 -0.11837097 0.22680019
0001b0 41 73 58 be b8 97 f7 3c 3d a5 9a 3e 42 2a c8 3e
       -0.21137716 0.030223712 0.30204192 0.3909474
0001c0 13 f1 30 3e 9f d5 3f 3e e1 fd 9a 3e 0f 92 bc 3d
       0.17279463 0.18733834 0.3027182 0.09207546
0001d0 43 1f 11 3f 84 73 22 be be 15 81 3e 82 a6 61 be
       0.56688327 -0.15864378 0.252119 -0.22036174
0001e0 2d 6b a2 3e cd 4f 80 3e 25 0d b8 3e e1 12 6b be
       0.31722394 0.25060883 0.35947528 -0.2295642
0001f0 42 00 e3 bb d8 2f 1b bf 90 0d 04 3f 4e 7f 80 3e
       -0.006927521 -0.6061988 0.51583195 0.25097126
000200 4b 14 7d 3f 98 5a 8d bd c1 2e c1 be 6e 9b 30 3f
       0.9885909 -0.06902045 -0.37730983 0.68987167
000210 95 ae ed 39 63 28 a2 be 91 f0 93 3e e9 31 27 bc
       0.00045334236 -0.31671438 0.28894475 -0.010204771
000220 58 ab 85 be b8 c5 c2 bd ea 21 bb 3d b0 39 0f be
       -0.26107287 -0.09510368 0.09137328 -0.1398685
000230 6e 30 11 3e b4 c4 f8 be 08 04 b7 3e 8d bf 1e 3f
       0.1417863 -0.48587573 0.35745263 0.62011033
000240 c3 da 97 3e 8c 8e a3 3e 28 c6 da be 68 6e b2 3e
       0.2965909 0.31944692 -0.42729306 0.34849858
000250 13 de 28 be 6d d4 3d bf 65 ca 32 3d 29 87 f0 3e
       -0.16490965 -0.7415226 0.04365005 0.4697812
000260 e8 eb 85 be 1f 9e d7 bc b7 23 d3 3e e3 e5 a7 bf
       -0.26156545 -0.026320515 0.41238186 -1.3117031
000270 0d f7 9e bd 52 af d8 be ed 86 c2 3c 0c 37 c2 3e
       -0.07761965 -0.4232126 0.023745978 0.37932622
000280 ad 84 fc be fe ac 8d 3d 70 22 d5 be 68 90 19 3f
       -0.49319974 0.06917761 -0.41627836 0.5998597
000290 0e 37 12 be 60 ac 55 be 77 ad fa be 1b 2a 7b be
       -0.14278814 -0.20866537 -0.48960468 -0.2452778
0002a0 64 a9 53 3e e6 0c 1b be bb 69 02 3f 01 ad 89 3e
       0.20670086 -0.15141639 0.5094258 0.26889804
0002b0 2a 89 81 be c8 e3 e4 3d d5 d8 f8 be 50 da 07 bf
       -0.2529996 0.11176258 -0.4860293 -0.53067493
0002c0 95 d6 83 bc 84 6a 94 bd de 26 e8 3d 30 50 15 bf
       -0.016093532 -0.07246879 0.11335538 -0.5832548
0002d0 16 e3 c4 be 23 50 33 bc e1 ff da 3d 5c 0c f2 be
       -0.38454503 -0.010944399 0.10693336 -0.47275054
0002e0 cc 44 77 be ca 60 a0 be 7b 1d b6 3e 8d c6 ca be
       -0.24147338 -0.31323844 0.35569367 -0.39604607
0002f0 1c 5c 00 bd df 98 5f be 08 ec 07 bf 55 8f 4c 3f
       -0.031337842 -0.2183566 -0.5309453 0.7990621

bias f4 [64]
000000 93 b1 c8 be fc e9 b9 be 64 b0 0e bf 70 83 08 bf
       -0.39197978 -0.36311328 -0.557379 -0.5332556
000010 59 0f 73 3e 43 c4 5b be 38 7c a2 bd 7d d0 d3 3d
       0.23736323 -0.21461587 -0.07933849 0.103425
000020 da 95 05 bf 33 ea ee 3e 38 b5 02 3f c3 78 a7 3e
       -0.5218178 0.46663055 0.5105777 0.3270932
000030 c8 6f fe 3e df 29 c3 3e ff a4 11 bf 50 0f 5a 3d
       0.49694657 0.38117883 -0.5689239 0.05323726
000040 46 ee 18 bf 2e cf e8 be 98 09 97 3e e3 53 1d be
       -0.59738576 -0.45470566 0.29499507 -0.15364031
000050 ef bf e1 3e 09 51 b1 3d ba ec 65 be 51 16 f7 be
       0.44091746 0.08658034 -0.22453585 -0.48259214
000060 1f 1f 6e bd ea 39 92 3e 69 01 d4 be de e8 4c 3e
       -0.05813515 0.2855981 -0.41407326 0.20010707
000070 b3 ef 22 3d 22 50 0b bf 25 9d b3 3e cd 1a 51 bd
       0.039779376 -0.5441915 0.3508083 -0.05105095
000080 47 7c 65 be 1d f9 57 3e 44 91 f2 3e 33 04 93 3e
       -0.2241069 0.21091123 0.47376454 0.2871414
000090 bf 2e c4 3e 33 56 8c 3e 69 34 e7 3e a8 a3 ca 3e
       0.38316914 0.27409515 0.45157173 0.39577985
0000a0 3d d0 0f bf e9 4e 02 bc 93 b5 26 3e 49 2b db bc
       -0.5617712 -0.007953384 0.16280203 -0.026754038
0000b0 52 95 75 3e 88 45 42 be c7 b7 99 be a3 de 13 3f
       0.23982742 -0.18971837 -0.30023023 0.5776159
0000c0 d8 ae 06 bf a4 ba 9d be 04 32 b4 be de 92 05 bf
       -0.5261054 -0.30806458 -0.3519441 -0.52177227
0000d0 a5 10 81 3e f0 6b 6f 3d 1d e2 33 3e c8 85 0c be
       0.2520801 0.058452547 0.17566724 -0.13722908
0000e0 f4 aa d6 be 3f 76 c7 be fa 37 9f 3e d7 57 90 3d
       -0.41927302 -0.38957402 0.31097394 0.07048004
0000f0 32 d4 97 be 96 cd 9f be 2b fb 15 bf d0 49 03 3e
       -0.2965408 -0.31211537 -0.58586377 0.12821126

weight f4 [32, 64]
000000 cf 0f 88 bd 30 77 d8 bb 5a 83 b1 3d 08 b0 6d bc
       -0.0664364 -0.006606005 0.086676314 -0.014507301
000010 73 00 93 bc 45 c9 b4 bd 2f 43 d4 bc b2 74 ad 3b
       -0.01794455 -0.088274516 -0.025910942 0.005293452
000020 e6 a3 a8 bc 6b a1 08 bd 00 fd 82 bd 09 78 24 bc
       -0.020585965 -0.033357065 -0.06395912 -0.010038384
000030 08 e3 37 3d 6f e2 ae 3c c0 55 03 be c2 9a 6b 3b
       0.04489425 0.021348206 -0.1282568 0.0035950397
000040 e0 00 0d bc b7 fe 44 3d 0d 05 07 3e e2 4b 18 bd
       -0.008606166 0.048094478 0.1318552 -0.037181742
000050 ae 69 d8 bd 68 d4 8d bd f4 3b 92 3d df af a5 bd
       -0.10567032 -0.06925279 0.071403414 -0.080901854
000060 e2 4b c9 3d cd 27 14 3d eb 2d 3d 3d b1 f7 f4 bb
       0.098289266 0.03617077 0.04618637 -0.007475816
000070 96 80 bb 3c b9 d1 13 3d 45 5d cf bd ab 78 a6 3d
       0.022888463 0.03608868 -0.101252116 0.08128484
000080 d6 18 68 3d 74 cd 80 bd f7 b5 d0 3d b4 b2 d8 bd
       0.05666431 -0.06289187 0.10190957 -0.1058096
000090 55 b1 42 3d 0d d1 9e bd d6 00 e2 bd 73 2b 6a 3d
       0.0475324 -0.07754717 -0.11035316 0.057170343
0000a0 ab f3 51 3b 23 99 26 bd b0 cb 6e 3d d3 a9 08 3e
       0.0032036107 -0.040673386 0.05829972 0.13346033
0000b0 ab 45 da 3d 06 0e 99 3d 55 c7 c5 bb c8 f0 dd 3d
       0.10657819 0.07473378 -0.006035725 0.10836941
0000c0 96 f5 a5 3d 45 77 f4 3c 67 b0 35 3d 89 42 3d bd
       0.081034824 0.029842028 0.044357684 -0.04620603
0000d0 cf 9f 30 bd 70 3e 79 bd f9 55 25 3d 94 d8 02 3e
       -0.043121155 -0.06085056 0.040365193 0.1277793
0000e0 bd ea 41 3d 77 9c 9a bd 11 77 66 bc 13 12 c9 bc
       0.047343004 -0.075493746 -0.014066474 -0.024544751
0000f0 bf 9a 83 3d 14 ea 88 bd 26 1d 74 3d 9b 43 29 3e
       0.06426 -0.06685272 0.05959811 0.16529696
000100 ea 02 92 3d a2 a8 e7 3d 19 15 97 3c ef 4b 68 bd
       0.07129462 0.11311461 0.018442677 -0.05671304
000110 d2 02 46 3d 69 32 82 bd 29 72 c2 3c 7b e3 9c 3c
       0.048342533 -0.06357271 0.023736076 0.01915144
000120 4d 93 78 3d d3 3d 9f bc 41 24 7c 3d 91 64 68 3d
       0.060687352 -0.01943866 0.061558012 0.056736533
000130 88 7a b1 bd 7f a4 2f bd a1 30 d5 3d 7e e1 e8 3d
       -0.08665949 -0.042881485 0.10409666 0.11371134
000140 4a 6e 99 bc f7 f3 21 3c 29 cf 16 be ba 1a c6 bd
       -0.018729348 0.009884826 -0.14727463 -0.096730664
000150 f4 41 97 bd 39 67 24 be 7c a3 d7 3d 1d 2b c8 ba
       -0.073856264 -0.16055001 0.10529229 -0.0015271638
000160 50 e9 08 be d9 85 96 bd 42 38 d9 3d 0e ed 00 be
       -0.13370252 -0.07349748 0.106064335 -0.12590429
000170 b4 0a af 3c 9a 9a 2d 3e 20 03 ec bd e7 fd 78 bd
       0.021367408 0.16953507 -0.115240335 -0.060789015
000180 07 dc ce 3d 18 6a 20 be cd b0 75 bd 5e ca 7c 3d
       0.10100561 -0.15665472 -0.059983063 0.06171643
000190 fe 7b 04 be c6 ba 85 3d 07 6c 59 3d cd d8 33 bd
       -0.12937924 0.06529765 0.05308154 -0.04390793
0001a0 0c 91 90 3c 16 03 c5 bd 4f e8 a3 3c 52 7a ce 3c
       0.017647289 -0.09619729 0.020008234 0.025204811
0001b0 c0 85 a2 bd b8 4b a3 3d 1c 6b 8e bd db 2e 27 be
       -0.07935667 0.079734266 -0.06954023 -0.16326468
0001c0 e0 22 f3 3d cc fc 19 3d 59 12 f7 3d 18 6a 10 3e
       0.11871886 0.0375946 0.120640464 0.14102972
0001d0 51 cb da bd 6f 28 7e 3d 96 1e 34 bd de 21 10 3e
       -0.10683311 0.06205028 -0.04397448 0.1407542
0001e0 dc 87 8e 3d 54 e3 0f 3e d8 91 7b bd 35 e9 f3 bd
       0.06959507 0.14051563 -0.061418384 -0.11909715
0001f0 9b 8f 63 bd e1 e9 05 bd 0b 2d 8e 3d 67 b8 1a bc
       -0.055556875 -0.032693747 0.06942185 -0.009443379
000200 b4 07 1b 3c b5 75 69 3d b7 a8 6b 3d 33 ae 53 bd
       0.009462286 0.05699702 0.057533946 -0.0516798
000210 6d ec b3 bd c6 60 16 3d 04 83 8f 3d c0 a1 d8 3d
       -0.08785329 0.036713384 0.07007411 0.10577726
000220 37 87 5f bd 8c 5b e5 3d 3b 51 7a 3d 4c f9 3a ba
       -0.05457231 0.11199102 0.061112624 -0.0007132485
000230 85 4a a7 bc 20 6e b2 3d 37 d0 b6 bd 6b c9 04 be
       -0.020421276 0.08712411 -0.089264326 -0.1296746
000240 63 19 93 3c f6 6e 81 3d 92 77 9a bd 33 44 96 3d
       0.017956441 0.06319992 -0.075423375 0.07337227
000250 4a f0 cb bd 74 b3 41 3e b7 10 d2 3d 9c e9 1e 3e
       -0.09957941 0.18916112 0.10257094 0.15518802
000260 dc 5d 28 3c 73 2c c1 3c be 82 47 bd 9d e7 11 3c
       0.010276284 0.023580765 -0.04870867 0.008905319
000270 44 e3 62 bd 74 73 5c 3d 66 2a 3b 3d 04 15 9f bb
       -0.05539252 0.053821042 0.04569473 -0.0048548
000280 6e a5 cd 3c 4e 8d 2f 3d 0f d8 a2 3d 0b a8 cb 3d
       0.025103297 0.042859368 0.07951366 0.09944161
000290 e9 fd 40 bd 3f 11 dd 3c 0f a8 48 bd ba 85 35 bd
       -0.047117148 0.026985763 -0.0489884 -0.044316985
0002a0 bf bc 37 bd 05 eb 58 3e ca ba a1 bc 4f 72 b5 bd
       -0.044857737 0.21183403 -0.019742388 -0.08859693
0002b0 e6 b4 85 3d 22 c6 ba 3c 1d 9c 4c bd ab d7 cd 3b
       0.06528644 0.022799555 -0.04995357 0.006281813
0002c0 5d 54 b9 bd 23 0b ab 3d ee b4 72 bc a5 2d 29 3e
       -0.09049294 0.083517335 -0.014813645 0.16521318
0002d0 cd f0 96 3d cc 19 85 3d b6 71 b1 bc 9f 8d d7 bd
       0.07370148 0.06499061 -0.021660667 -0.10525059
0002e0 92 40 fe bd 75 d2 6d bd b8 6f 5d bd 8b 96 4c bd
       -0.124146596 -0.058062036 -0.05406162 -0.049948256
0002f0 33 4e e3 3d 4f 8f 8c 3c 07 13 0e be c8 8a 86 bd
       0.110989 0.017158179 -0.13874446 -0.06569439
000300 30 6c d4 bc cb 42 3c bd 3f 5a 32 bd d0 ac be bd
       -0.025930494 -0.045962136 -0.043543097 -0.09310305
000310 c5 5c 82 bb 08 bd 84 bd 8c 75 11 bd a6 58 ef bd
       -0.003978344 -0.06481367 -0.035512492 -0.1168683
000320 f6 10 37 3d ad d7 40 bd bc 51 38 3d b8 ae 0b 3e
       0.04469391 -0.047080684 0.044999823 0.13640869
000330 22 80 26 3d 74 3d 92 bd 48 68 a0 bd ec aa 9a 3d
       0.04064954 -0.071406275 -0.0783239 0.07552132
000340 c2 77 45 3c be 83 89 bc 2b 9f 3b bd 4e 21 de b9
       0.012052478 -0.016786452 -0.04580609 -0.00042367954
000350 30 42 22 3e da a6 30 be 66 3d 06 bc 84 09 1a be
       0.15845561 -0.17251149 -0.0081933495 -0.15042692
000360 b4 d8 04 be aa 0b d4 bd ba fb 05 bd c1 df 84 3d
       -0.1297329 -0.10353787 -0.03271077 0.0648799
000370 de a9 ff bd 24 9b e2 3d d2 2a 06 bc 8c ad f1 bd
       -0.124835715 0.11064747 -0.00818892 -0.118006796
000380 a9 55 db bc 8a 8d 5e bd 37 06 87 3d ab a2 3d 3d
       -0.026774244 -0.0543342 0.06592982 0.04629771
000390 32 3c 87 3d 9b 84 5a 3d 97 d4 73 bd c1 e5 79 3d
       0.06603278 0.05334912 -0.059528913 0.061010126
0003a0 6f 75 b6 bd 1c cb cd 3c fc e7 b4 3c ef bc a3 3b
       -0.089091174 0.025121264 0.022083275 0.004996888
0003b0 2b 49 80 3d e0 a6 6a bd ca 35 c1 bd 1a a0 e5 3d
       0.06263956 -0.05728805 -0.094340876 0.112121776
0003c0 e4 ff b3 bd 00 fa 99 bd 84 b1 3a be e6 93 20 be
       -0.08789042 -0.07518387 -0.1823178 -0.15681419
0003d0 55 b4 d5 bc a8 98 88 bd 90 c2 43 bd 5a c9 1d 3e
       -0.026086966 -0.06669742 -0.04779297 0.15408841
0003e0 36 7a d7 bd 2d 8d 0e 3d 10 b5 10 3e 8f 14 49 bc
       -0.10521357 0.034802604 0.1413157 -0.012272968
0003f0 c1 f0 24 3c c1 f6 37 bd 7c 1c 98 3d 7e e7 b9 3d
       0.010067166 -0.044913057 0.07427308 0.09077357

bias f4 [32]
000000 be 90 9e 3d f2 74 0e 3d bf 31 04 3d 5c 58 89 3d
       0.07742451 0.034779496 0.032274004 0.06706306
000010 bc f2 5b 3d d7 44 7d 3d 2d cd dc 3d fb c3 c3 bd
       0.053698286 0.06183323 0.10781322 -0.09558865
000020 ca 5f c2 bc ee f9 6b 3d ce 7e 93 bd 25 c8 21 3c
       -0.023727316 0.0576114 -0.072019204 0.009874378
000030 e5 44 07 3e 07 14 ad 3d c8 2a ed bd 3f 8a 09 3d
       0.13209875 0.084510855 -0.115804255 0.033579107
000040 9d e0 6b 3d 0a a2 a1 3d e5 0c c9 bd a4 04 a5 3d
       0.057587255 0.078922346 -0.098169126 0.08057526
000050 f6 50 a9 bd 9e 4f 1c be 05 1e cb 3d bb f6 9a 3d
       -0.08267395 -0.15264747 0.09917835 0.07566591
000060 31 8f 28 bd 21 20 52 3b eb a1 b0 3b e8 54 37 bb
       -0.041152183 0.0032062607 0.005390396 -0.0027974192
000070 57 fd ce bc e9 0c b4 3d 8f d0 5b 3d 53 98 8b 3d
       -0.025267286 0.08791525 0.053665694 0.06816163

weight f4 [16, 32]
000000 79 20 0b 3e 98 29 5b 3d 3a 24 84 bd f4 1a 06 bd
       0.13586606 0.053506464 -0.06452222 -0.03274055
000010 bd 25 f8 3b a3 0c c9 3c 45 77 de 3d eb 23 d2 bd
       0.007572858 0.024542158 0.108625926 -0.10260757
000020 b5 47 ac 3c 54 6e f0 3c 0f a1 a2 3d 69 5c e7 3d
       0.021030286 0.029349484 0.07940876 0.11296923
000030 37 8f ae bc 6f d9 cc 3d a4 75 4b be b1 4f e6 bd
       -0.021308525 0.1000241 -0.19869095 -0.11245669
000040 0f 21 0f 3d 0d 60 c2 3d 36 3a 16 be 30 32 27 3e
       0.034943637 0.094909765 -0.14670643 0.16327739
000050 33 49 3d 3e 60 2d 91 bd 51 2c d6 3d 18 59 0a 3d
       0.18484955 -0.07088733 0.104576714 0.033776373
000060 f2 87 c0 bb 78 9c 21 3e 14 e0 bd bd c3 9c 62 3d
       -0.005875581 0.15782344 -0.09271255 0.05532528
000070 3a a9 25 3d c2 b6 ed bd d8 5d 44 3d c4 03 26 be
       0.04044459 -0.11607124 0.04794106 -0.16212374
000080 81 6b 32 3c 04 cb 48 be e7 cf 3d 3e 74 c6 ce 3d
       0.010889889 -0.19608694 0.1853634 0.10096446
000090 36 e7 20 3e 89 95 81 3d 29 87 06 3d 44 1c b2 3d
       0.157132 0.0632735 0.032843743 0.086967975
0000a0 4c 82 e7 bd 46 e9 1c be f2 5f ba bc 95 f7 54 bd
       -0.11304149 -0.15323362 -0.022750828 -0.051993925
0000b0 0c ec be 3d 18 c0 b6 bd d8 5f ba bd 79 5a 48 bd
       0.09322366 -0.08923358 -0.09100312 -0.048914406
0000c0 e3 e6 56 bd d7 82 e5 bd 53 8a dd 3d 5d d5 cc bc
       -0.052466284 -0.11206596 0.10817399 -0.025004083
0000d0 1a 2b 99 bd 50 74 f3 3d 2a 24 22 3e 49 69 64 3d
       -0.07478924 0.11887419 0.15834108 0.05576447
0000e0 09 4f 4c bd da 8e 88 bc cf 7b e3 bd 18 28 3b be
       -0.04988006 -0.01666968 -0.11107599 -0.18277013
0000f0 0f eb b1 3c dd db df 3d 70 32 82 3b 83 d2 e9 3d
       0.02171853 0.109306075 0.003973298 0.11417105
000100 12 07 2b be b2 a3 be bc 9f 1e a5 3d 3c f8 b8 bd
       -0.16701916 -0.023271415 0.08062481 -0.09031722
000110 75 75 f4 bc f0 98 9e 3d b4 75 b3 3d 2b b4 e7 3d
       -0.029841164 0.07744014 0.087626845 0.11313661
000120 74 66 91 bd 1c 32 98 3d 86 33 75 bc f2 a6 2a 3e
       -0.070996195 0.074314326 -0.014965897 0.16665247
000130 4d 80 74 3d 04 26 54 be ff b9 c8 bc b0 3d bb bd
       0.05969267 -0.20717627 -0.024502752 -0.09142625
000140 63 1d a0 3d 8d f8 f3 3d 95 8f e4 3c 62 86 a6 bd
       0.07818105 0.11912642 0.027900496 -0.081311
000150 c5 8d 13 be ba ef 82 bd b5 11 dd 3d f3 d4 95 bd
       -0.1440955 -0.063933805 0.10794393 -0.073160075
000160 a5 7c 52 bd 5c e3 92 bd 65 a4 00 be ca f7 a4 3c
       -0.0513884 -0.071722716 -0.12562712 0.020137686
000170 83 2b 03 bc 84 89 ae bc 85 e3 12 be 78 42 95 bd
       -0.0080059795 -0.021305807 -0.14344604 -0.072880685
000180 24 f7 18 3e e3 e0 2a be 09 98 32 3e 55 55 2b 3e
       0.14938027 -0.1668735 0.1744081 0.1673177
000190 44 15 db bd 85 72 1c be 79 6c 4c 3e c1 a1 10 be
       -0.106974155 -0.1527806 0.19963254 -0.14124204
0001a0 d2 ac f7 3c 93 c0 8e bd 9b 82 e2 39 ac 4a 6b 3e
       0.030233774 -0.06970324 0.00043203388 0.22977704
0001b0 83 db 86 3c 0c 41 a6 bb c0 78 db 3d 1f 95 46 3e
       0.016462093 -0.005073672 0.107163906 0.19392823
0001c0 82 62 f2 bd 38 a0 34 be a2 27 fe 3d 62 0e d5 3b
       -0.11835195 -0.17639244 0.12409903 0.0065019587
0001d0 53 f3 0f bd dd 08 b2 3b 77 be 1f 3e d5 d8 27 3e
       -0.03514416 0.0054331855 0.156 0.16391309
0001e0 9f 92 ab bc ae e2 ed 3d 75 83 c0 bc 95 a1 02 3e
       -0.020943938 0.11615501 -0.023500184 0.12756951
0001f0 e4 4f f3 3d b6 de 03 be 7b 64 8c 3c 21 06 8f bd
       0.11880472 -0.12877926 0.017137757 -0.06983591
000200 a9 ef e3 bd 59 83 8d 3c a7 6a b5 3d e5 76 7a be
       -0.11129696 0.017274546 0.08858233 -0.24459417
000210 2e 37 6a 3e 16 6a b4 3c ce 43 b9 3d 43 c8 2a 3e
       0.22872612 0.022023242 0.09046136 0.16677956
000220 6d ce 39 3e 32 5c 32 3e c2 bf 22 be 4f 53 92 bd
       0.18145151 0.17417982 -0.15893462 -0.07144796
000230 4c 5c 6d 3a e8 c2 59 be 8a 21 3b 3e 6b cb 70 bd
       0.0009054586 -0.21265757 0.18274513 -0.058787744
000240 50 8a 7f 3e 52 98 68 be bd 8c 8a bd 37 e3 6e be
       0.24955106 -0.22714356 -0.06765125 -0.23328863
000250 8e 1c 8a 3d b4 ff 76 bc 63 3c cd bd 76 ba 25 be
       0.067437276 -0.015075613 -0.100212835 -0.1618441
000260 6b 23 b2 3e 26 c0 fb 3c 11 81 9e 3d 4d aa 44 be
       0.34792647 0.030731272 0.07739461 -0.1920559
000270 fb a8 d4 3d 28 6c 4d bc 16 d9 4f 3e dd d1 09 3e
       0.10383793 -0.0125379935 0.20297655 0.13458963
000280 08 b6 19 3e 0a c5 a0 3d b6 67 2e 3d 58 69 26 be
       0.15010846 0.07850082 0.042579375 -0.16251123
000290 5d d7 cd bd 71 11 10 bd 07 c4 2e 3c ff 44 f9 bd
       -0.10050843 -0.035172883 0.010666854 -0.12171363
0002a0 fc b7 d9 3d dc 2c 02 3e cb d3 e0 3c 6c 3b 4e 3e
       0.10630795 0.12712425 0.02744474 0.20139855
0002b0 d1 53 0a be c3 18 18 3e 16 02 ad bd 88 4e bc ba
       -0.13508536 0.14853196 -0.084476635 -0.0014366666
0002c0 de c7 01 3e 54 c6 2f be 6b e7 96 3d 5c 63 9c 3d
       0.126739 -0.171655 0.07368358 0.07636139
0002d0 f3 81 b9 bc 7d 8a 00 bc c5 5b 02 3e 63 e2 3b 3e
       -0.022644972 -0.007845518 0.1273032 0.18348078
0002e0 0d 5a 1b 3e 86 4d c1 3d 89 2a d0 bc 05 7a e4 3d
       0.1517107 0.094386145 -0.025410907 0.11156086
0002f0 ab cf a3 3d 92 e5 dc bd de c7 ed 3d 73 e1 c4 bd
       0.07998594 -0.107859746 0.11610387 -0.096133135
000300 18 42 e9 bd e0 d8 e3 3c f0 0d 32 be 68 f1 0d be
       -0.113895595 0.027813375 -0.17388129 -0.1386162
000310 e8 ab 49 be ac 69 0c 3d f6 30 0f be 19 bf 05 3e
       -0.19694483 0.034280464 -0.13983521 0.13061179
000320 ed fb 13 3d fb 75 e8 bd 3d 5f be bd 94 1e 58 be
       0.036128927 -0.11350628 -0.09295509 -0.21105415
000330 a7 78 dd bd e2 0b 4c bd 66 f7 bf 3c 9e c8 e0 3d
       -0.10814028 -0.04981602 0.023433398 0.10975765
000340 2a 77 09 bd 4a ea 3f bd 0b cd 0c be 4f e9 78 3c
       -0.03356091 -0.046854295 -0.13750093 0.015192344
000350 7e 89 33 3d a5 12 1b 3e 3c 50 78 bd fc a5 e4 bd
       0.043832295 0.15143831 -0.060623392 -0.111644715
000360 f3 65 6e 3d 6b 48 d7 bd d3 1d 26 be e9 6f c1 bd
       0.058202695 -0.105118595 -0.16222315 -0.09445173
000370 11 35 e8 3d 29 17 bf 3d a4 55 51 3c 60 12 42 3d
       0.113382466 0.09330589 0.012776766 0.047380805
000380 1d 1c a5 bd 73 00 d7 3c 45 a5 65 3c d0 8d 0a 3e
       -0.08062003 0.026245331 0.014016454 0.1353066
000390 4d 2b 35 be 43 c3 24 3e 87 9a 22 bd 60 06 58 bd
       -0.17692299 0.16090111 -0.03969815 -0.052740455
0003a0 aa 2d 9a bd 84 f7 d8 bd 66 1b ae 3d 58 7b fc bd
       -0.07528241 -0.10594085 0.085013196 -0.123282135
0003b0 32 47 0f 3c f7 57 33 bc b1 72 b5 bd 99 a6 a7 bd
       0.008745002 -0.010946265 -0.08859766 -0.08186073
0003c0 4d de 95 bc 66 0f 57 3d 1f df 87 bd 21 05 d7 3d
       -0.018294478 0.05250492 -0.06634354 0.10499025
0003d0 f9 0d 61 bd 20 a1 ac bd 3a 16 96 3d 60 c9 15 3e
       -0.054944966 -0.0842917 0.07328458 0.146276
0003e0 c2 42 aa 3d e7 c4 8f 3d 1f d8 f6 3d 59 2c cd bc
       0.08313514 0.07019978 0.120529406 -0.02504556
0003f0 3d 41 ac bd 0c 50 86 bd be 98 56 3e 9a 01 d8 3c
       -0.08410881 -0.065582365 0.20956704 0.026367951

bias f4 [16]
000000 ea 53 1b 3c f2 87 18 be 97 92 19 3d 52 01 87 3c
       0.009480456 -0.14895609 0.037493315 0.016480122
000010 cf 64 3b be 9e 39 29 3e 1f e5 2b 3c bc 20 de 3b
       -0.18300174 0.16525885 0.010491638 0.0067788046
000020 57 7d bb 3c ef da dd 3d e2 a9 1a be 2d 9e 15 3d
       0.022886915 0.10832774 -0.15103868 0.0365278
000030 8c ee 72 bd 58 1f 34 3e 6a 37 0c be 85 bc 71 bd
       -0.059309527 0.17590082 -0.13693014 -0.059017677

weight f4 [1, 16]
000000 c3 5b d2 bd e1 de a0 3d 1c fd 83 3d 88 d6 15 3e
       -0.102714084 0.07855011 0.06444761 0.14632618
000010 c0 f8 35 3e d2 bc 3c 3e 46 5b 31 be e7 72 4c be
       0.17770672 0.18431404 -0.17319974 -0.19965707
000020 47 14 82 3e 78 ad 2c 3e 4f d1 6e bc e1 36 85 be
       0.25406095 0.16863048 -0.01457627 -0.26018432
000030 a8 25 62 bd c3 99 1d bd c3 fc 3f be 3d 29 cb bd
       -0.055211693 -0.038476717 -0.18748765 -0.09919975

weight f4 [16, 1]
000000 a1 b8 10 3e 2f 82 59 3f 44 02 ca be 06 1a cc be
       0.1413293 0.8496427 -0.39454854 -0.39863604
000010 50 86 d3 bd ab 55 7c bf 02 19 7a bf 40 af 09 bf
       -0.103283525 -0.9856822 -0.9769441 -0.53783035
000020 33 53 72 bf 89 38 dc 3e d3 0d 3e 3f 75 a4 79 3f
       -0.946582 0.43011883 0.74239844 0.97516567
000030 88 72 93 3e b6 1c 7d bf 79 71 85 bf b2 e3 ec bd
       0.28798318 -0.98871934 -1.0425254 -0.11566867

bias f4 [16]
000000 51 0d 88 be d5 bb f6 3e ad 0f 31 bf 2b e8 29 bf
       -0.2657266 0.4819018 -0.69164544 -0.66369885
000010 94 01 55 3f bb 76 60 3f 7b 32 55 bf 44 f8 81 be
       0.83205533 0.8768117 -0.8328015 -0.25384724
000020 09 fe 4d be 35 17 bd be 44 b3 03 bd eb 93 02 bf
       -0.20116438 -0.36931768 -0.032153383 -0.51006955
000030 6b 33 8c bd a4 96 30 3f 69 07 88 be 0d 88 fa bd
       -0.06845745 0.6897986 -0.26568154 -0.12232981

weight f4 [32, 16]
000000 d2 04 0d be 0c 30 0b 3e 81 77 ff bd 99 f4 47 bc
       -0.1377137 0.13592547 -0.124739654 -0.012204313
000010 9d 55 16 be 7b 15 34 3e bf 5f 5c bd e0 35 32 3e
       -0.14681096 0.17586319 -0.053802248 0.17403364
000020 5f 81 5d be dc a4 5d 3e 57 90 c5 3e c8 9d cd 3d
       -0.21631382 0.2164492 0.38586685 0.1003986
000030 58 c7 24 bd c7 07 99 bd 5f 82 93 be 67 02 58 3e
       -0.04022917 -0.074721865 -0.28810403 0.21094666
000040 55 64 1c be 56 05 77 3e 05 e2 75 3e 76 7a 0c be
       -0.15272649 0.24123129 0.24012001 -0.1371859
000050 fc e3 a3 3d d4 c6 2c be cc b1 7d be ad 5a 74 be
       0.08002469 -0.16872722 -0.24774855 -0.23862715
000060 23 12 25 3e 22 ab fa bd 23 04 98 3e 90 b9 04 3e
       0.161202 -0.12239672 0.29690656 0.12961411
000070 87 15 8e 3e dc 77 7c be 10 3b 2d bb f0 fb 38 3e
       0.277508 -0.24655098 -0.002643291 0.18064857
000080 ff 50 8e 3d 9f b9 ec bd 78 70 84 bd e6 45 9e 3c
       0.069490425 -0.11558842 -0.06466764 0.01932044
000090 0a 09 42 be ea d9 4c 3e 40 cd 7e be 55 1f 50 be
       -0.1894876 0.20005003 -0.24882984 -0.20324452
0000a0 af 4f 13 bc 7b 02 93 3d a6 ba 46 3e cb 11 0c 3e
       -0.008991166 0.071782075 0.19407138 0.13678662
0000b0 7a dd 85 3e 3f 34 4f be f1 82 73 be ae 61 10 be
       0.26145536 -0.20234774 -0.23780419 -0.14099762
0000c0 6a ae 03 3e e0 0d 5c be 64 35 17 be 1a 01 12 bd
       0.12859502 -0.21489668 -0.1476646 -0.03564558
0000d0 cf 77 df 3d 46 98 93 3e 35 6a 0f 3d d2 65 72 bd
       0.109115236 0.28827113 0.035013396 -0.059179135
0000e0 01 e9 d5 3c 44 9e 8d bd f8 6c 01 be de de 4b bd
       0.026112081 -0.069149524 -0.12639225 -0.04977309
0000f0 b5 66 b6 be 62 5e a0 3e 6a bd 67 3e 46 00 c6 3c
       -0.35625234 0.31322008 0.2263085 0.024170052
000100 92 c6 80 bc a8 35 46 3e 4b dd f4 bd 3b d2 ed 3c
       -0.015719686 0.19356406 -0.11956271 0.02903091
000110 7a 88 6e be 6b 29 45 be b1 6d 72 be 0b cc 83 be
       -0.23294249 -0.19254081 -0.23674656 -0.2574161
000120 10 67 21 3c b5 73 91 3e 61 8a 0f 3e 63 06 8e bd
       0.009851232 0.2840859 0.14017631 -0.06934812
000130 67 d2 d8 3d c3 f3 38 bd 09 9e d1 3d ce 90 22 be
       0.10587006 -0.045154344 0.10235221 -0.15875551
000140 b5 a9 8e be 5c 61 82 3c b8 4a 4d bd 2d 86 1f be
       -0.2786385 0.015915565 -0.050120085 -0.15578528
000150 dc fd fa 3c 5e 86 35 3e 87 a2 34 3e 32 02 c9 3d
       0.030638628 0.17727038 0.17640124 0.09814872
000160 17 ae 6c 3e 08 b8 38 bd 9a b1 42 bd 94 fe a1 be
       0.23113285 -0.04509738 -0.047532655 -0.3163954
000170 55 0f be bd 69 49 d9 bd 40 39 67 3e b8 a7 84 bd
       -0.09280268 -0.10609705 0.22580433 -0.06477302
000180 94 96 bd bd b3 6c cf 3d c2 1b 48 3e 8d 2e 47 be
       -0.09257236 0.101281546 0.19541839 -0.19451351
000190 35 7a 14 bc 64 c0 96 bd 06 b0 2d 3e 60 87 90 3e
       -0.00906234 -0.07360914 0.16961679 0.28228283
0001a0 2f a0 a4 3d 73 69 46 3c fa 96 bd bd 32 d4 55 3d
       0.08038365 0.012110102 -0.09257312 0.05220432
0001b0 66 04 63 bd 9d 7a a2 3e fc d2 06 3e b4 81 41 3d
       -0.055424117 0.31734172 0.13166422 0.047242835
0001c0 ac d1 47 be cf 4c 32 bd 4c d9 14 be dc 00 14 be
       -0.19513577 -0.04353028 -0.14536017 -0.14453453
0001d0 2a 49 2a be 7d 6d 80 be 65 2e 03 3d bf e9 b7 3d
       -0.16629472 -0.25083533 0.032026667 0.089801304
0001e0 50 82 3b be 44 1e 0e 3e 68 d1 99 3e 5d 97 10 3e
       -0.18311429 0.13878733 0.30042577 0.1412024
0001f0 02 34 03 3e 97 ce 32 bd 57 41 13 3e f4 b2 23 3d
       0.12812808 -0.04365405 0.14380394 0.039965585
000200 5d 05 8d 3d 2a 4d 90 3e e7 32 2a bd cc a5 83 3d
       0.068857886 0.28183872 -0.04155245 0.064281076
000210 4b f1 50 be 78 4b e6 3c 47 0c f5 3d 0c 87 67 be
       -0.20404546 0.028112158 0.11965232 -0.2261011
000220 2b ef 29 be 2f 38 1a be e6 33 51 3d 59 e8 48 3d
       -0.16595142 -0.15060495 0.051074885 0.04904971
000230 38 59 47 3d 2e 67 fe bd 72 66 a9 be ac 9b e3 bd
       0.04866907 -0.12422024 -0.33085972 -0.111136764
000240 29 a0 34 be 91 8f 8e be 88 80 de bd d5 97 c0 3b
       -0.17639221 -0.27843907 -0.10864359 0.005877475
000250 45 c7 8e 3d 8b 15 23 3e 57 d2 83 3e c7 ad 89 3e
       0.069716014 0.15926187 0.25746414 0.26890394
000260 83 2c 90 bd e8 1f 16 3e 6b e8 bd bb d6 ed 1c be
       -0.0703974 0.14660609 -0.0057955286 -0.15325102
000270 e1 ae 9f bd 88 f6 40 3e 48 1d 13 3e b6 6f 36 be
       -0.077970274 0.18844044 0.14366639 -0.17816052
000280 fb e7 b2 bd 42 1f 0f 3e 66 4e ab 3d 67 82 f0 bd
       -0.08735653 0.13976768 0.08364563 -0.11743622
000290 4d 85 ea 3b 20 27 44 be eb 9a 81 bd 37 ee 7b be
       0.007157004 -0.1915555 -0.063283764 -0.2460259
0002a0 5f f3 74 be db a7 01 3c d9 fd 07 bd ce 54 e5 3d
       -0.23920964 0.007913555 -0.033201072 0.11197816
0002b0 f5 36 00 3e 41 77 3f 3d 77 b2 31 3e 38 42 17 be
       0.12520964 0.04674459 0.17353235 -0.14771354
0002c0 93 1c 91 3d 25 b7 59 be f5 27 34 3d 57 c9 00 3e
       0.07085528 -0.2126127 0.04398342 0.12576805
0002d0 7d f2 43 be fe 72 ec 3d 8a da 21 be e4 52 76 3e
       -0.1913547 0.115453705 -0.15806022 0.24055058
0002e0 00 76 25 be 56 65 5f 3d ae fc 59 bd 72 6b a6 be
       -0.16158295 0.05454 -0.05321949 -0.3250385
0002f0 7b 2d 47 3d 1d 0d 60 3e 4b 9b 64 3e 48 36 35 3c
       0.048627358 0.21880002 0.22324865 0.011060305
000300 64 68 8e bd 17 d3 20 3e d5 04 03 be f3 25 13 3e
       -0.06953505 0.15705524 -0.12794812 0.14369945
000310 ad a7 4a bd 9b 85 5b be 65 48 dd 3c b9 e5 98 be
       -0.049476314 -0.21437685 0.02701206 -0.29862764
000320 88 f1 88 be 62 6d 59 3e 92 b4 f9 3d d0 cd 20 3e
       -0.26746774 0.21233132 0.12192644 0.15703511
000330 dd d3 c4 bd 7b 84 f2 3c 46 d1 1a be 39 b0 35 bd
       -0.09610722 0.029604187 -0.15118894 -0.044357512
000340 db 2e d0 3d eb 89 52 3e b6 53 22 3e cc fc d8 bd
       0.10165187 0.20560424 0.15852246 -0.10595092
000350 8b ee 20 3e b4 7a 8d bd 2b 17 7a bd 50 d3 9f be
       0.15715997 -0.069081694 -0.06105725 -0.31215906
000360 e7 45 b5 bd 43 f0 ad 3e 45 2e 4b 3e b0 aa 8a 3e
       -0.088512234 0.33972368 0.19841869 0.2708335
000370 a5 4d 68 3c b1 40 a4 bd 97 cf 72 bb 17 d9 26 bd
       0.014178668 -0.080201514 -0.0037050003 -0.040734377
000380 e0 94 77 3e 6c 71 8b 3d f7 6e 2b 3e ef 7e 69 be
       0.24177885 0.06808743 0.16741548 -0.22802328
000390 66 0d ff 3c a6 35 0f 3e cb 05 65 bd d9 1a a8 bd
       0.031134319 0.13985309 -0.055913728 -0.08208246
0003a0 a7 a5 7b be 47 48 7c 3e 5a 62 d6 3b f5 5e 93 3e
       -0.2457491 0.24636947 0.006542486 0.28783384
0003b0 f6 ff 97 3d f7 4b 8c be 2c 45 32 be a1 e8 5b be
       0.074218675 -0.27401707 -0.174092 -0.2147546
0003c0 9c c4 35 be d7 ea cc 3d df ee b3 3d 92 f2 b9 3c
       -0.17750782 0.1000573 0.087857954 0.022698674
0003d0 6a 21 1b 3a 0b d1 17 bd af 64 44 be 7a 70 da 3d
       0.000591776 -0.037064593 -0.19179033 0.106659845
0003e0 c8 3c fc bd 0e 2d 38 be c8 67 90 3e fc 7e ee bd
       -0.123162806 -0.17985937 0.2820418 -0.11645314
0003f0 65 ef 70 3e cb d2 8b be bb 64 65 be 7f 48 23 3e
       0.23528822 -0.2730926 -0.22401707 0.15945624

bias f4 [32]
000000 34 cd 77 be 3f 3b df bd 48 4f 22 be 51 33 51 be
       -0.24199373 -0.10899972 -0.15850556 -0.20429732
000010 5d e2 2f bd 93 cf b8 bd 66 6a 12 3e 6e 52 55 3e
       -0.042940486 -0.09023967 0.142984 0.20832226
000020 3a 9f 40 be 0d 7d 3b 3e 49 29 b1 3c c5 6d 39 bd
       -0.1881074 0.18309422 0.021626132 -0.0452707
000030 ba 66 2d be 4d 9d 7a bd 93 ce 6a bd 70 8f 4c be
       -0.16933718 -0.06118517 -0.05732591 -0.19976592
000040 bd a6 7f bd 17 84 87 3e 42 da b7 bd 37 32 93 3d
       -0.062414873 0.26467964 -0.08977176 0.07187312
000050 df be 8e be da 9a c1 bd 68 10 2a be 91 52 74 3e
       -0.27879998 -0.09453364 -0.16607821 0.23859622
000060 f9 54 2d 3e 38 c8 02 3e 84 ed 1c 3e a7 e1 82 be
       0.16926946 0.1277169 0.1532498 -0.25562784
000070 3c 71 bf 3d d2 0f 7d be d2 b3 38 3e b0 93 8b 3d
       0.093477696 -0.24713066 0.18037346 0.068152785

weight f4 [64, 32]
000000 4e fc 61 3e af e5 b0 3e 10 f4 1e 3d 85 f0 90 be
       0.22068903 0.34550235 0.038806975 -0.28308502
000010 c2 ab d1 3d 76 35 cb be d2 45 09 bf 17 80 86 3e
       0.10237838 -0.39689225 -0.5362216 0.262696
000020 ba 3e a2 3d 7a 2a 0a be 16 f9 aa 3d 93 66 db bd
       0.079221204 -0.13492766 0.083482906 -0.10712924
000030 a8 18 97 3e 7c ce ff 3b 4c f7 d0 3e d1 c4 96 3e
       0.29511 0.0078065973 0.40813673 0.29447034
000040 c0 61 8a 3e 48 c8 ca be ec 3f 97 3e 48 09 69 be
       0.27027702 -0.39605927 0.29540956 -0.22757447
000050 e3 c2 3c 3e 48 a2 35 be f3 4b 01 be bf 3f 8e be
       0.18433718 -0.17737687 -0.12626629 -0.2778301
000060 fd 86 e9 bd 96 68 3a 3e 91 24 3d 3e 8c c6 26 3e
       -0.114027 0.18203959 0.1847098 0.16286677
000070 f6 1f 80 be a4 51 a7 3e 0d 33 6e 3c ca a5 33 3e
       -0.25024384 0.32679474 0.014538539 0.17543712
000080 5f 61 5c bd 32 33 8e 3e 48 0d 4f 3e 6a 97 8e 3c
       -0.053803798 0.27773434 0.2021991 0.017406184
000090 a1 f8 04 3d e8 ea 39 bd 20 4f 3d be 52 ac 4e 3e
       0.032463674 -0.04539004 -0.18487215 0.20182922
0000a0 23 13 96 3c d7 ab 0c be 56 55 10 3d f3 eb 72 ba
       0.018319672 -0.13737427 0.035237633 -0.00092667266
0000b0 65 fb d2 bd a7 e4 0a bc 9d 25 5a bd e5 45 26 3e
       -0.10301856 -0.0084773665 -0.053258527 0.162376
0000c0 db 41 67 bd 30 46 ed bc 52 b2 20 3e 8b 93 0b be
       -0.05645929 -0.028964132 0.15693024 -0.13630502
0000d0 11 a8 a8 bd d9 1f 61 be cf 38 13 3e d7 9b e2 bd
       -0.08235181 -0.21984805 0.1437714 -0.1106488
0000e0 c9 9f f2 bd df a3 26 3e cb ad 14 3e 66 e6 10 3e
       -0.11846883 0.1627345 0.14519422 0.1415039
0000f0 ac e2 2e be b5 a1 12 3d b7 b9 a8 bd 00 0c 79 bd
       -0.17078656 0.035798747 -0.08238547 -0.06080246
000100 62 c4 50 bc 79 91 47 be b8 1d f4 bc 5b 06 f7 3d
       -0.012742134 -0.19489087 -0.029799327 0.12061759
000110 4d d7 4b be f2 01 78 3e c0 99 37 bd 97 92 1a 3e
       -0.1990635 0.24219492 -0.04482436 0.15094982
000120 a0 10 b8 3d 0b 7d e7 3d d4 48 e0 3d 31 47 f8 3d
       0.08987546 0.11303147 0.10951391 0.12122954
000130 fc 0d 00 3e 91 cd 4c be a4 ac c6 bd 23 b3 86 bc
       0.12505335 -0.20000292 -0.09700897 -0.01644284
000140 c8 06 08 be 43 1d 80 3e 0e 4b a8 3d ad 30 e4 3d
       -0.13283837 0.25022325 0.082174405 0.11142097
000150 35 f2 3d 3d ec 02 92 3d c7 e1 25 3e 14 20 8f bc
       0.046373565 0.071294636 0.16199408 -0.01747135
000160 be 8f 16 3b a9 c9 41 be 74 d2 0e 3e 97 b8 6b be
       0.002297386 -0.18924583 0.13947469 -0.23019634
000170 f6 1d da bd 23 91 06 3e a3 11 71 bd 2b aa a6 3d
       -0.10650246 0.13141303 -0.05885471 0.08137926
000180 e1 fa 40 3e a4 95 df 3c 0f c0 ef 3c 4a 7c 43 3e
       0.18845703 0.027293034 0.029266385 0.19090381
000190 b9 ce 52 3e ed 9f 85 bd c5 61 70 be 11 9e d3 bd
       0.20586671 -0.06524644 -0.23474796 -0.10332883
0001a0 63 28 11 3e 61 87 4a 3d b4 50 22 3e 9a b5 46 bd
       0.14175563 0.049445514 0.15851098 -0.048513032
0001b0 c7 23 c7 3d b0 a4 08 bc 02 dd f2 bd 9e f6 8a 3c
       0.09723621 -0.008340046 -0.1185856 0.0169633
0001c0 16 da 6d 3e ae 26 4c bd 08 9c 4c 3e 95 bf 6e bc
       0.23227724 -0.049841575 0.19981396 -0.014572044
0001d0 7d 6b 7b 3d 24 b2 4f be 7d 5b e9 bd 4d fd 1e 3e
       0.061381806 -0.20282799 -0.11394403 0.15526314
0001e0 95 14 19 3e e0 b7 af 3d 9c 64 8e bd be ba de 3d
       0.14949258 0.08579993 -0.069527835 0.10875462
0001f0 3b 32 61 be ed 8e 23 3e 47 bc 5e 3e ae 5e cc bd
       -0.21991818 0.1597249 0.2175151 -0.09978996
000200 54 3d 1c be 27 07 81 bd 1c ab c6 3d d6 f4 0d be
       -0.1525777 -0.06300192 0.09700605 -0.13862929
000210 25 70 63 be fb 9d 50 3e 70 59 39 3e f7 1a e8 bd
       -0.22210748 0.20372765 0.18100524 -0.11333268
000220 39 64 3c bc d8 66 5d bd 8d a6 c5 bd 12 ac a1 bd
       -0.011498504 -0.054053158 -0.09650908 -0.07894148
000230 db 91 13 3e 99 d9 86 3c 03 bb 2a be 14 fa ee bd
       0.14411108 0.01646118 -0.16672902 -0.11668792
000240 18 37 3f be a7 23 51 3e 65 87 96 bd a7 e6 44 3e
       -0.1867336 0.20423757 -0.07350043 0.19228612
000250 95 d6 86 be 84 fb 2d 3e 20 c3 82 bd 92 6e d9 bd
       -0.26335588 0.16990477 -0.063848734 -0.10616793
000260 03 a1 0a be 5f 74 72 bd d2 9f 1b 3e ab c3 6f 3b
       -0.13537984 -0.05919301 0.15197685 0.0036585133
000270 b8 c6 35 3e 2a 45 bb bd 58 de 4f be e2 29 e4 3d
       0.17751586 -0.091440514 -0.20299661 0.11140801
000280 09 f8 88 be d5 46 88 bf c2 57 9c be 8a cb 3a 3e
       -0.26751736 -1.0646616 -0.30535704 0.18241706
000290 45 ee 52 be f7 46 44 3f 01 85 22 3f eb c1 31 be
       -0.20598705 0.76670784 0.634842 -0.1735913
0002a0 78 bb 22 be c1 fb f7 bb e8 18 4b bd 1e 4c 85 3e
       -0.15891826 -0.007567853 -0.0495843 0.26034635
0002b0 cd 1e 81 be bd c8 0d bf 63 51 f9 be 4a 68 0f be
       -0.25218812 -0.5538443 -0.48694906 -0.14004627
0002c0 26 27 c3 be 75 d1 09 3f 1b 8f 35 bf a4 b9 b4 3e
       -0.38115805 0.5383523 -0.70921487 0.35297883
0002d0 34 98 22 be 10 7b 3b 3f 63 fe e5 3e f0 37 59 3e
       -0.15878373 0.73234653 0.44920644 0.21212745
0002e0 d1 c8 03 3e c6 c9 16 bf b3 89 a0 bc a2 01 89 be
       0.12869574 -0.5890163 -0.01959691 -0.26759058
0002f0 42 58 48 3d c7 ae 15 be e8 7c 83 3b f9 66 cf bd
       0.048912294 -0.14617454 0.0040126927 -0.10127062
000300 84 a1 4b 3e 29 29 1e 3c 51 f2 a1 bc 13 48 32 be
       0.19885832 0.009653368 -0.019768866 -0.17410307
000310 a0 d6 29 3e f0 8c 93 3c d5 a4 0b be a2 a1 92 3d
       0.16585779 0.01801154 -0.13637097 0.07159735
000320 b7 40 fa bc 69 4b 3a be 14 f7 8c bd 1c 62 4b bc
       -0.030548437 -0.18192829 -0.06883064 -0.012413528
000330 7e c2 50 bd 82 da 3e 3e 10 1e 2f 3e 9d 5a 1d 3e
       -0.050966732 0.18638042 0.17101312 0.15366597
000340 71 43 61 3e ff c2 e8 bd df 76 04 3d ed bd fc bd
       0.21998383 -0.113653176 0.032339927 -0.12340913
000350 41 af 0b 3e 33 21 22 be c7 71 01 be ec 4f 01 bd
       0.13641073 -0.15832977 -0.12641059 -0.03157036
000360 b4 61 5f bc e7 8d d0 bd 3e ab 1a 3d 5a 21 e2 bc
       -0.013634134 -0.10183316 0.037760966 -0.027603794
000370 51 7f d4 bd 81 96 1b bc e6 94 a0 3d 63 bd 68 bd
       -0.10375846 -0.009496332 0.078409 -0.05682124
000380 48 64 86 3d 09 30 61 be 77 b1 1d 3d b1 c0 16 3c
       0.06562096 -0.2199098 0.03849932 0.009201215
000390 56 2d 2e bd 0d b9 39 3e de 3b 19 bd ae 9b 05 be
       -0.042523704 0.18136998 -0.03741061 -0.13047668
0003a0 db 52 41 bd 11 0b 64 3e f9 78 5c bd 9c 6f c4 bc
       -0.047198158 0.22269846 -0.053826306 -0.023979
0003b0 0a f9 2f be f8 e4 a1 bd 55 29 1b bd 03 30 87 bb
       -0.17184845 -0.079050004 -0.037881214 -0.0041255965
0003c0 71 82 be bd e8 c5 f7 3d cc 57 96 3c e7 7d 6e 3e
       -0.093022235 0.120982945 0.018352412 0.23290215
0003d0 9c 91 af 3d 9a 73 cf 3c 86 00 45 3e 9f a1 3a 3e
       0.08572695 0.025323678 0.19238481 0.18225716
0003e0 5d 61 20 3e d7 8d 8c 3d be 11 86 bd e4 cc 43 3c
       0.15662141 0.06862991 -0.06546353 0.011950705
0003f0 fb 96 79 3d 5f 23 48 be 27 e1 af 3d 7b a9 cc 3d
       0.060935 -0.19544743 0.08587866 0.09993263

bias f4 [64]
000000 e6 0e e4 3d d4 c8 b5 bb 4f 2a 03 be cc 65 9d 3d
       0.11135654 -0.005547622 -0.12809108 0.07685432
000010 3e e9 33 be d0 7f c2 bc 82 79 1b be 0e d3 8f 3a
       -0.17569444 -0.023742586 -0.1518307 0.0010972933
000020 38 b9 04 3e 41 19 dc 3d 81 7c fd bc b2 03 3f 3d
       0.1296128 0.10747004 -0.030943157 0.046634383
000030 c8 58 77 bc 78 88 16 3e bb c7 ec 3d a6 cf 80 bc
       -0.015096851 0.14700496 0.11561533 -0.015724014
000040 0e c7 2e 3e b6 31 2e be d0 fd 2d 3d 6b e0 a0 bd
       0.17068121 -0.1701115 0.042478383 -0.07855304
000050 f0 b1 f4 3d 2b fa 37 be 93 4a 06 be f9 51 21 be
       0.119480014 -0.17966525 -0.13114385 -0.15753926
000060 4a 9a a0 3d 37 34 a0 3d d3 e4 04 bd 1c b8 08 3d
       0.07841928 0.07822459 -0.032444786 0.033378705
000070 12 ee ed bc 4c d9 05 bc 72 ee 02 be 09 f1 7d bd
       -0.029044185 -0.008169483 -0.12786272 -0.061997447
000080 d0 14 50 bb e9 ac 09 be c5 8c 20 3e 93 fe db bd
       -0.0031750686 -0.13444866 0.156787 -0.107419156
000090 f7 fd f7 bc 9e a1 cf 3d 9b 48 80 3d 63 4e 09 3e
       -0.030272467 0.10138248 0.062638484 0.13408808
0000a0 d0 d2 6a 3d 7c 63 86 3d 7a 69 f0 3c 05 5e 2e 3e
       0.057329953 0.06561944 0.02934717 0.17028053
0000b0 0a f8 fb bd 21 b7 17 3d 7e e3 14 be d4 4b df 3d
       -0.12303169 0.03703988 -0.14539906 0.10903135
0000c0 a7 b7 ed bc 00 7e 2d bc c4 37 02 3e 0c 76 c7 ba
       -0.029018236 -0.010589123 0.12716585 -0.0015217676
0000d0 4a e5 56 3d 61 0b 27 3d 14 9a 90 bd 90 6a 65 3d
       0.05246476 0.040782336 -0.07060638 0.05600983
0000e0 05 ea 26 be 97 87 cb 3d 44 45 29 3e 81 ce b1 bd
       -0.16300209 0.09937971 0.16530329 -0.086819656
0000f0 40 42 3d 3d a4 d1 7e 3d 9b c1 8c bd 0d d1 fe 3c
       0.04620576 0.062211648 -0.06872865 0.031105543

weight f4 [3, 64]
000000 88 0d 86 bd 5d 04 ea bd ee cd ab 3d f3 e6 77 bd
       -0.0654555 -0.114266135 0.08388887 -0.060522985
000010 bf c6 99 3c 43 13 84 be 08 cd 1c be da 40 12 3e
       0.018771527 -0.25795946 -0.15312588 0.14282551
000020 dc 6d 9e 3e ef 0a 81 3e c6 a5 01 3e 7c 42 87 3d
       0.3094319 0.25203654 0.12660894 0.06604478
000030 2f 73 ed bd 77 15 04 be 4b 6e 1a 3e c0 4c e7 3d
       -0.11594235 -0.12898813 0.15081136 0.11293936
000040 41 30 cd 3d 09 55 81 bc 3c e2 4a 3d 9e 2a 28 be
       0.10018969 -0.015787618 0.04953216 -0.16422507
000050 8e d4 39 3e 81 c1 d8 3c 70 42 33 be 51 35 1e 3d
       0.1814749 0.026459457 -0.17505813 0.038625065
000060 eb 94 f6 3d 2d a4 83 be 67 96 3e be 7f 1d 4f 3e
       0.120401226 -0.25711194 -0.18612061 0.20226096
000070 c1 90 86 3e 35 31 de bd 5b c6 b6 3d 53 ee f1 3b
       0.26282313 -0.10849229 0.08924552 0.007383147
000080 f2 59 0f bd 71 ae 54 be ae b3 1c 3e 3b 2a 2c bd
       -0.034997888 -0.20769669 0.15302917 -0.04203246
000090 7f aa 73 3e ef 30 91 3d 15 86 5b be b7 33 08 3e
       0.23795508 0.070894115 -0.21437867 0.13300978
0000a0 b7 36 fd bd 97 03 ec bd 88 1b 30 be 10 b2 2d 3e
       -0.12363952 -0.11524122 -0.17198002 0.16962457
0000b0 1e f3 2d 3e 03 45 61 3e ac d2 31 be 8b ee bb 3d
       0.16987273 0.21998982 -0.17365521 0.09176358
0000c0 6b 97 54 3e ed 38 bd bd 4e 70 49 bd ff 05 7e 3e
       0.20760886 -0.09239373 -0.049179368 0.24806975
0000d0 92 89 26 3d 9b 48 20 be 66 f4 49 be 6c 88 a1 3d
       0.04065854 -0.15652697 -0.19722137 0.078873485
0000e0 a7 78 17 bd 7d 9e dd bd c6 b5 bd 3d 4c 6d 22 be
       -0.036980297 -0.10821245 0.09263186 -0.15862006
0000f0 23 81 ed bd 99 18 15 be 31 c5 6c 3e a6 b1 5d be
       -0.115968965 -0.14560165 0.23122098 -0.21649799
000100 fe 5e 64 be 38 5f 9b 3e 3c 08 81 be 23 73 87 3e
       -0.22301862 0.30346084 -0.25201595 0.2645503
000110 06 c6 28 be 20 b5 e8 3e 20 ab f2 3d d2 19 5a be
       -0.1648179 0.45450687 0.11849046 -0.21298912
000120 6f 5d 82 be c5 9a c2 be f4 32 86 be 5a 82 ed be
       -0.2546191 -0.38008705 -0.2621075 -0.46388513
000130 bd d6 b1 3e d1 34 30 3e 99 de 12 be eb 94 97 3e
       0.34734145 0.17207648 -0.14342727 0.29605803
000140 20 0f b8 3e 30 d9 13 be bd ac 68 3d 9e c4 80 bc
       0.3594904 -0.14438319 0.05680536 -0.015718754
000150 35 1c 67 3e 64 c0 a5 3e 2a 58 46 3e f0 84 87 3e
       0.22569354 0.32373345 0.1936957 0.2646861
000160 1d 82 cd bd 7f d4 ab 3e d1 e1 80 bd 61 11 3b be
       -0.10034583 0.3356056 -0.06293071 -0.18268348
000170 95 9c ce be 41 89 c9 3e 1c 82 c5 bd 9e 1d 3b be
       -0.40353838 0.3936253 -0.09643957 -0.18273017
000180 b3 b2 da 3e 53 9d 71 3e f1 77 45 be 95 d9 e5 3e
       0.42714462 0.2359517 -0.19284035 0.44892564
000190 a3 6c 7d be c3 32 80 be 9f 42 1c 3e 3f bd 4a 3e
       -0.24748473 -0.25038728 0.15259789 0.19798754
0001a0 d0 1b 05 3e b7 38 79 3e ff a1 78 3e 8f 17 93 bd
       0.12998891 0.24338041 0.24280547 -0.07182228
0001b0 69 b6 2e be e5 63 c5 be b2 4b 31 be 83 75 af be
       -0.17061771 -0.38552776 -0.17314032 -0.34269342
0001c0 53 03 23 be 40 85 b1 be 38 03 90 be 13 8e 7d be
       -0.15919237 -0.34671974 -0.28127456 -0.24761228
0001d0 91 1a 3c be 68 d4 5b 3e 5b c1 f4 3d 2b 26 5b be
       -0.1836951 0.21467745 0.11950942 -0.21401279
0001e0 9e 0e 41 be a1 bc bf 3e 85 25 14 be 0f 9b 47 3e
       -0.18853232 0.374486 -0.14467438 0.19492744
0001f0 df 33 91 3e c2 56 5f 3e e2 e9 90 be 8a ab 3f be
       0.28359887 0.21810439 -0.28303438 -0.1871778
000200 1b 49 bc 3d 74 e0 c0 3d bc b6 f5 bc 28 78 95 bc
       0.09193631 0.09417811 -0.029994361 -0.018245772
000210 12 ce cc 3d dc 9c 99 3c 6a 2b ef bd 59 09 06 be
       0.10000242 0.018751554 -0.116782025 -0.13089503
000220 5e 1c c8 bc d0 1e da bc c7 4e 84 3d ee b0 99 bc
       -0.024427589 -0.02662602 0.06460338 -0.018761124
000230 d6 11 96 bd c7 60 17 bd ae 40 e5 3d 83 63 82 bd
       -0.07327621 -0.03695753 0.11193977 -0.063666366
000240 2a 3b 73 b8 83 c3 c9 bb 7e 9d ab 3d e0 75 99 bc
       -5.7990816e-05 -0.00615734 0.083796486 -0.018732965
000250 53 88 68 3d 9b 66 0f be 3b 87 25 bd 47 dd a9 3d
       0.056770634 -0.14003985 -0.04041217 0.082941584
000260 5c b9 9c 3c ab 65 e7 3c a8 f3 f0 bb cd f2 d5 3c
       0.019131355 0.028246721 -0.007353265 0.026116753
000270 89 03 7e 3d ce 2f 00 be a3 e2 8b bd 51 91 2d 3c
       0.06201509 -0.12518236 -0.06830337 0.010593728
000280 0b e9 cf bc a6 8e 35 be f5 a5 d8 3d 30 52 e6 3d
       -0.025379678 -0.17730197 0.10578529 0.11246145
000290 88 23 4b 3d 0b 27 cc bc d8 3e 3a 3d 14 91 88 3d
       0.049594432 -0.02492096 0.04547009 0.066682965
0002a0 f0 8b f4 3d a9 22 05 3d e7 22 8c 3d f4 27 c0 bd
       0.119407535 0.032503758 0.068425946 -0.093826205
0002b0 55 a8 00 bd db 38 d7 bd f4 5b c5 bc 70 2e c8 3c
       -0.031410534 -0.10508891 -0.024091698 0.024436206
0002c0 2f bd a0 bc d3 a0 9f 3d a7 0a 06 bd ed 68 fe 3d
       -0.01962146 0.07794347 -0.032725003 0.12422357
0002d0 52 b7 94 bd b1 d6 c4 bd e1 4d b1 3d 22 c1 12 bd
       -0.07261528 -0.09611262 0.08657432 -0.035828717
0002e0 ef 9e c3 bd 3d 90 a7 3d 6b c6 21 bd a3 25 e3 3d
       -0.095517986 0.08181808 -0.039495867 0.11091163
0002f0 7e 3b 89 3b 84 96 2e bd 59 8e d9 3d 82 02 92 3d
       0.004188 -0.04262401 0.10622854 0.071293846

bias f4 [3]
000000 74 cc 4c bd 8b 35 0f be 67 04 0b bd
       -0.04999967 -0.13985269 -0.033939745
