biased_simulations/iter_1_biased/1/umbrella.pt (torch, 21385 bytes, 11 tensors)

weight f4 [8, 3]
0	0x40212d28	2.518381
1	0xbf398736	-0.7247194
2	0xbf2e27f6	-0.68029726
3	0xbe20e0a8	-0.157107
4	0xbef15cc9	-0.47141102
5	0xbf99e717	-1.2023648
6	0xbfbc8d0a	-1.4730542
7	0xbd54f5c5	-0.051992197
8	0x3fb53c6d	1.4159065
9	0xbf67efcf	-0.90600294
10	0xbf46fbd3	-0.77728003
11	0xbfa92241	-1.3213578
12	0xbf544f21	-0.8293324
13	0x3c835555	0.0160319
14	0x3f9ca117	1.2236661
15	0x3fe226c1	1.7668077
16	0x3e0c16b8	0.13680542
17	0xbfc3a8f2	-1.5285933
18	0xbeb990e5	-0.36243358
19	0x3e3dcaf0	0.18534446
20	0x3f742564	0.95369554
21	0x3e1db5b4	0.15401345
22	0x3edbb88d	0.4291424
23	0x3f70625f	0.939001

bias f4 [8]
0	0xbea29fa8	-0.31762433
1	0x3d91531f	0.07095932
2	0x3e36b593	0.17842703
3	0x3e5a21ca	0.21301952
4	0x3dab00b9	0.08349747
5	0xbeafa108	-0.34302545
6	0xbd3c90ac	-0.046036407
7	0xbd555428	-0.05208221

weight f4 [4, 8]
0	0x3f86f3c1	1.0543138
1	0xbe8c9ff5	-0.27465788
2	0x3fe2f477	1.7730855
3	0x3e83f106	0.25769824
4	0x3fc438ed	1.5329872
5	0xbfdb77e8	-1.7145967
6	0x3f8d45d8	1.103694
7	0xbcc7b941	-0.024380328
8	0xbf84a1f6	-1.0361927
9	0x3f313d12	0.6923381
10	0x3eecd6b7	0.46257564
11	0x3f546819	0.8297134
12	0x3e30f38e	0.17280409
13	0xbf409832	-0.7523223
14	0xbe58037c	-0.21095079
15	0xbf351e68	-0.7074952
16	0x3e459eb3	0.1929882
17	0x3eb5f619	0.3553932
18	0x3ef44d88	0.47715402
19	0xbe170508	-0.14748013
20	0xbb793422	-0.0038025458
21	0xbf1d524c	-0.614537
22	0xbe9c2bae	-0.30502075
23	0xbea153ff	-0.31509396
24	0x3cfd9576	0.030955058
25	0xbec5ea56	-0.38655347
26	0xbf3575f6	-0.7088312
27	0xbcd15c73	-0.025556779
28	0xbf38332c	-0.7195308
29	0x3eeb23d9	0.45925787
30	0x3c0e8457	0.008698544
31	0x3d7bab13	0.061442446

bias f4 [4]
0	0x3dc0f933	0.09422531
1	0xbdc8253f	-0.09772729
2	0x3e11cb2d	0.14237662
3	0xbda7d0a3	-0.08194091

weight f4 [1, 4]
0	0x3f54ecaa	0.8317362
1	0xbf6a2638	-0.9146457
2	0xbe73c12b	-0.23804156
3	0xbebd398b	-0.36957964

weight f4 [4, 1]
0	0xc09c3df6	-4.8825636
1	0xc025910a	-2.5869775
2	0x401972b5	2.3976262
3	0xc01f4489	-2.488558

bias f4 [4]
0	0xbe82ed6d	-0.25571766
1	0xbdcb2cb2	-0.09920634
2	0xbe6340b7	-0.22192656
3	0xbe4a59d9	-0.19760837

weight f4 [8, 4]
0	0xbe9be68b	-0.30449328
1	0xbfb293ce	-1.3951356
2	0x3fde8b76	1.738631
3	0xbf8c5fc1	-1.0966722
4	0x3d55c2a6	0.052187584
5	0x3f67c76d	0.90538675
6	0xbf190a3f	-0.5978126
7	0x3e95f2a1	0.29286674
8	0x3f2ad0fe	0.66725147
9	0x3f63ae3b	0.8893773
10	0x3da09b15	0.078420796
11	0xbdcf3e22	-0.10119273
12	0xc068df53	-3.6386306
13	0xc0ab207a	-5.3477144
14	0x3f95591b	1.1667818
15	0xc0c43ec4	-6.132662
16	0xc0008969	-2.0083869
17	0xc0948cdc	-4.6421947
18	0x4067acd4	3.6199236
19	0xc0899302	-4.2991953
20	0xbe94eda0	-0.29087543
21	0x3edf237f	0.4358177
22	0xbf820cef	-1.0160197
23	0x3f6ec7cb	0.9327361
24	0x3eff28d9	0.49835852
25	0xbf443c87	-0.7665486
26	0x3f3ba81a	0.7330338
27	0xbf82f1be	-1.0230024
28	0x3ec0c751	0.37652066
29	0x3f57a61b	0.8423783
30	0x3d8d23d0	0.06891596
31	0x3f93547e	1.151016

bias f4 [8]
0	0xbef163bb	-0.471464
1	0xbe380c36	-0.17973408
2	0xbea3ebec	-0.32015932
3	0x3f8a8734	1.0822511
4	0xbf2eed87	-0.6833119
5	0xbec3d379	-0.38247278
6	0x3e76fe25	0.24120386
7	0xbf2a8c05	-0.666199

weight f4 [3, 8]
0	0xc04cce81	-3.200104
1	0x40390298	2.8907833
2	0x3f248f5f	0.64281267
3	0x3fca58d8	1.5808363
4	0x400c85ab	2.1956584
5	0x403671a1	2.8506854
6	0xc0710edb	-3.7665317
7	0x3fc0d49f	1.5064887
8	0x3fc47aee	1.5350015
9	0xbfb7f0ac	-1.4370322
10	0xbe2331d4	-0.15936977
11	0xc009618f	-2.1465795
12	0xc00c7d9a	-2.195166
13	0xbfe42489	-1.782365
14	0x402879a0	2.6324234
15	0xbf992a67	-1.1966065
16	0x3b936c4e	0.004498995
17	0xbdb293fa	-0.087196305
18	0x3d8d4122	0.06897189
19	0x3ae40240	0.001739569
20	0x3a9ab4b5	0.0011803122
21	0x3dd04c8b	0.101708494
22	0x3cb2bf48	0.021819726
23	0xbd436ad6	-0.04770931

bias f4 [3]
0	0x3e962784	0.29327023
1	0xbdc4d3b3	-0.09610691
2	0x3bb6c876	0.005578096
