biased_simulations/iter_2_biased/0/umbrella.pt (torch, 51625 bytes, 17 tensors)

norm_mu f4 [3]
0	0x3dca4549	0.09876496
1	0x3ea2fda8	0.3183415
2	0x3dac7751	0.08421195

norm_std f4 [3]
0	0x3e26ad85	0.1627713
1	0x3df4e8d5	0.11958472
2	0x3e1d3c9c	0.15355152

weight f4 [64, 3]
0	0xbcef514b	-0.029213568
1	0x3eb36217	0.35035774
2	0x40914493	4.539621
3	0x3ebed7d8	0.3727405
4	0xbf0fc2a8	-0.56156397
5	0x409b4717	4.852428
6	0x3e3e2a47	0.18570815
7	0xbeac4ca3	-0.3365222
8	0xbec38a7a	-0.38191587
9	0x3e8cddf3	0.27513084
10	0x3e5cd8a6	0.2156702
11	0x3efa5569	0.48893288
12	0x3ee782f0	0.45217085
13	0xbf2200d9	-0.63282543
14	0xbf33c978	-0.7022929
15	0x3e902944	0.28156483
16	0xbeb20274	-0.34767497
17	0xbe37786e	-0.17917034
18	0xbebfb3b2	-0.37441784
19	0xbec925e8	-0.39286733
20	0xbfc858a6	-1.5652053
21	0x3f096856	0.5367483
22	0xbda0dccf	-0.07854616
23	0xbd9f2e5f	-0.077725165
24	0x3e544995	0.20731194
25	0x3e2b9443	0.16755776
26	0x3e4a8587	0.19777499
27	0xbe3502a7	-0.17676793
28	0x3f088e81	0.53342444
29	0x3ec698f0	0.38788557
30	0xbd07d464	-0.033161536
31	0xbe5112e1	-0.20417358
32	0xbf3a4445	-0.7276042
33	0xbe8d7727	-0.2762997
34	0xbec14d8c	-0.37754476
35	0xbfcdd8ef	-1.6081828
36	0xbdcb1000	-0.09915161
37	0x3ef17cbf	0.47165486
38	0xbf8d6b4c	-1.104837
39	0x3eada173	0.33912238
40	0x3ef2bdf8	0.4741056
41	0x3f2cf7c6	0.6756557
42	0xbe8642b9	-0.2622278
43	0xbda653a9	-0.08121426
44	0xc03cbea8	-2.9491367
45	0xbf1665cb	-0.58749074
46	0xbd51bef7	-0.05120751
47	0x3fecff00	1.851532
48	0xbe979aa9	-0.29610184
49	0xbf87f55b	-1.0621752
50	0xc05ba467	-3.4319093
51	0xbf518238	-0.81839323
52	0x3df4c0d5	0.11950842
53	0xbf967070	-1.1753063
54	0x3e230990	0.15921617
55	0xbf312b6a	-0.6920687
56	0xbecef285	-0.40419403
57	0xbf6f0b5c	-0.9337671
58	0x3f19121c	0.5979326
59	0x3edf1e7b	0.43577942
60	0xbf524bbc	-0.8214681
61	0xbe8947ae	-0.268125
62	0xc0209fe0	-2.509758
63	0x3e80c501	0.25150302
64	0xbebf2509	-0.37332943
65	0x4090a3af	4.519981
66	0x3e007c32	0.12547377
67	0xbf5d2954	-0.86391187
68	0xbe0c29b5	-0.13687785
69	0x3f072208	0.527863
70	0x3e6af47e	0.22944829
71	0x3d099f75	0.033599336
72	0xbec8a7a2	-0.39190394
73	0x3edbf451	0.42959836
74	0xc027409f	-2.6133192
75	0x3e7ad402	0.24494937
76	0xbec07676	-0.3759038
77	0xbf1acc63	-0.6046812
78	0xbee0c40e	-0.43899578
79	0x3f1da9e3	0.6158735
80	0xbabf8182	-0.001461074
81	0xbef3c713	-0.4761282
82	0x3f065f5c	0.52489257
83	0x3f0d4af8	0.5519252
84	0x3f1b2254	0.60599256
85	0xbf67f58c	-0.9060905
86	0x40a0cd04	5.0250263
87	0x3de4bc21	0.11168695
88	0xbe791fff	-0.24328612
89	0xbf4e23a1	-0.80523115
90	0x3ddb542b	0.10709413
91	0xbe42022a	-0.18946138
92	0xbfb62ec2	-1.4233019
93	0xbf0ce1e3	-0.55032176
94	0x3da80ab1	0.08205164
95	0xc0607a8f	-3.5074804
96	0x3ebb0428	0.36526608
97	0xbeec20b4	-0.461187
98	0xbef0db45	-0.4704229
99	0xbdf326a9	-0.11872608
100	0xbd668d75	-0.056287248
101	0xbf6e508a	-0.9309164
102	0x3cc0ca30	0.02353391
103	0x3b328068	0.002723718
104	0x3f072aa8	0.52799463
105	0x3df643ab	0.120246254
106	0xbf56592f	-0.83729833
107	0x3d0112ac	0.031511948
108	0x3ea13840	0.31488228
109	0xbef21ecf	-0.4728913
110	0x4089e9db	4.309797
111	0xbf11c8d7	-0.5694708
112	0x3f017008	0.5056157
113	0x3e888ea0	0.26671314
114	0x3e1f4df2	0.15557078
115	0xbf88d04f	-1.0688571
116	0x3d81d2d2	0.06339039
117	0xbecda4fc	-0.40164936
118	0x3f0b2dfe	0.54367054
119	0x3f004aab	0.50113934
120	0xbf17c521	-0.5928517
121	0x3f26d4f6	0.651687
122	0x3fb65ad5	1.424647
123	0xbe5c7794	-0.2152999
124	0xbf2d6214	-0.6772778
125	0x4026b7a9	2.6049597
126	0x3dfae838	0.122513235
127	0xbe827bff	-0.25485227
128	0x3ed88c93	0.4229475
129	0xbed662d8	-0.41872287
130	0x3eec1ba8	0.4611485
131	0x3e9cfaa0	0.30659962
132	0xbef5f364	-0.48037255
133	0xbe8feb3e	-0.28109163
134	0x404f00d3	3.2344253
135	0xbef1b359	-0.47207144
136	0x3f054b49	0.52068
137	0xbe36dd43	-0.17857842
138	0x3ea3c0e9	0.31983116
139	0xbe1605ec	-0.14650697
140	0xc071d9f4	-3.7789278
141	0xbf76cbf4	-0.9640496
142	0xbf1ee5e3	-0.6206953
143	0xbf52fab9	-0.8241382
144	0xbe5910b0	-0.21197772
145	0x3d25de0c	0.040494964
146	0x40984c22	4.7592936
147	0x3eacc1e9	0.33741692
148	0xbe7a813a	-0.24463359
149	0x3ffe6a2a	1.9876149
150	0xbe76f84c	-0.24118155
151	0x3edbdff0	0.42944288
152	0xbf957d10	-1.1678791
153	0x3e31bcd1	0.17357184
154	0xbb7e3901	-0.0038791301
155	0x3f95dd50	1.1708164
156	0xbe958800	-0.29205322
157	0x3ee689d9	0.45027044
158	0xbef54b15	-0.47908846
159	0x3ef9e9f6	0.4881131
160	0x3ee219af	0.4416022
161	0x3e301030	0.17193675
162	0xbe993917	-0.2992637
163	0x3d8293b0	0.063758254
164	0x3f420060	0.7578182
165	0xbe218475	-0.15773185
166	0x3eb735c6	0.35783213
167	0xbfd2f769	-1.6481754
168	0x3db84f45	0.089994945
169	0xbf1e806e	-0.6191472
170	0x3f0f70b6	0.5603136
171	0x3bc9656e	0.0061461246
172	0x3de74037	0.11291545
173	0xbeeadd3f	-0.45871922
174	0xbd2a3ac0	-0.041559935
175	0xbdd3e4c3	-0.10346367
176	0xbf2771d0	-0.6540804
177	0x3f33771d	0.7010363
178	0x3e602af7	0.2189139
179	0xc0019afd	-2.0250847
180	0x3eba1646	0.36345118
181	0xbef1e288	-0.47243142
182	0xbe6e407a	-0.23266783
183	0xbf72c170	-0.9482641
184	0xbf028df0	-0.5099783
185	0xbee917c3	-0.4552594
186	0xbead0526	-0.3379299
187	0xbf953847	-1.16578
188	0xc04d9ba4	-3.2126245
189	0xbdecf11a	-0.11569424
190	0x3ebd6a51	0.36995175
191	0x404651e1	3.0987475

bias f4 [64]
0	0xbe6827da	-0.22671452
1	0x3eb4d0c1	0.35315517
2	0xbe61d30f	-0.22053169
3	0x3ee88ed6	0.45421475
4	0xbda3ed21	-0.08004213
5	0xbd867806	-0.065658614
6	0x3f07a8aa	0.52991736
7	0xbe0d00ec	-0.13769883
8	0x3ebe5db0	0.37180853
9	0xbe38460b	-0.1799547
10	0x3d1f4d12	0.03889186
11	0x3efa4763	0.4888259
12	0x3e95d020	0.2926035
13	0xbe978a59	-0.29597738
14	0x3ea43ce6	0.32077712
15	0xbf3bdfb2	-0.73388207
16	0xbef1e2e7	-0.47243425
17	0x3e8f0057	0.27929947
18	0xbed9acea	-0.42514735
19	0x3e9b5a5f	0.30342385
20	0x3ea7cade	0.32771963
21	0x3e71034b	0.23536412
22	0xbee28c03	-0.44247445
23	0x3f0e02da	0.554731
24	0x3e159d6d	0.14610834
25	0x3c9430ea	0.01808973
26	0x3d755779	0.059897874
27	0x3e34b9d4	0.17649013
28	0x3f128552	0.5723468
29	0xbe26011c	-0.1621136
30	0xbe082b68	-0.13297808
31	0xbeb91a81	-0.36153033
32	0xbdae4e0a	-0.085109785
33	0x3ed43bcd	0.41451874
34	0xbd9dde5a	-0.07708426
35	0xbedb0b4f	-0.42782065
36	0x3e98e18a	0.29859573
37	0x3e8065d4	0.2507769
38	0xbf0b86fd	-0.5450285
39	0x3d4604cb	0.048344415
40	0x3e63780c	0.22213763
41	0x3e624ad1	0.22098853
42	0xbe00164d	-0.12508507
43	0x3e1f3465	0.1554733
44	0xbe6e4c2b	-0.23271243
45	0x3e335647	0.17513381
46	0x3f2a10c6	0.66431844
47	0xbeef32f1	-0.46718553
48	0xbea4615d	-0.32105532
49	0xbe6b78ed	-0.22995348
50	0x3e7acfc8	0.24493325
51	0xbee2f556	-0.443278
52	0xb9b3eabe	-0.00034316437
53	0x3ee8a8c2	0.45441252
54	0x3efd270b	0.4944385
55	0xbd882b6e	-0.066489086
56	0xbea279e7	-0.3173363
57	0x3e9c78c5	0.3056089
58	0x3ee64c51	0.449801
59	0x3d8f5ccb	0.07000121
60	0xbd8c1aa6	-0.0684102
61	0xbec76bde	-0.38949484
62	0xbf011933	-0.50429076
63	0xbe7ccad4	-0.24686748

weight f4 [32, 64]
0	0x3e11c8ca	0.14236751
1	0x3e76ef03	0.24114613
2	0x3ef7fdea	0.4843591
3	0x3e562da4	0.20915848
4	0x3ed9373e	0.4242496
5	0x3eae0470	0.3398776
6	0x3df8d062	0.12149121
7	0x3f0f4eef	0.5597982
8	0x3e080ab8	0.13285339
9	0xbda10a77	-0.07863324
10	0x3ea5a70e	0.32354015
11	0x3d5577c2	0.052116163
12	0xbcb042d9	-0.02151625
13	0x3ddf1ca8	0.108941376
14	0x3e0fcf90	0.14044023
15	0xbdfd8e12	-0.123806134
16	0xbe92d029	-0.2867444
17	0xbe104a6c	-0.1409089
18	0x3f6acda4	0.9172003
19	0x3dd926d0	0.10603106
20	0xbd557fe6	-0.052123927
21	0x3e675457	0.22590767
22	0xbdc0dbc2	-0.094169155
23	0x3e0b1d26	0.13585338
24	0x3d45524e	0.048174195
25	0x3edc7c9f	0.43063828
26	0xbde8dbf1	-0.113700755
27	0xbe19f7ac	-0.15035886
28	0x3e6ca009	0.23107924
29	0x3eeb993b	0.46015343
30	0x3ee7cb70	0.45272398
31	0x3da5e1c4	0.08099702
32	0x3e24bdb1	0.16087987
33	0x3d319760	0.043357253
34	0x3acb3322	0.001550291
35	0xbd66f3f2	-0.056384988
36	0x3df3eb08	0.11910063
37	0xbd23828e	-0.03991943
38	0xbdc395d2	-0.0955006
39	0xbd31976f	-0.04335731
40	0xbd12f01f	-0.03587353
41	0x3e412128	0.18860304
42	0x3ebb8d60	0.36631298
43	0xbd9b5db2	-0.0758623
44	0xbe63a866	-0.22232208
45	0x3d88a4d5	0.06672064
46	0x3d04f55f	0.032460567
47	0x3e0c7dc1	0.13719846
48	0x3e2e1ff1	0.17004372
49	0x3e9d828c	0.30763662
50	0xbd98b344	-0.07456067
51	0x3dcb9347	0.099402
52	0xbd8ccd94	-0.068751484
53	0x3d5408f9	0.05176637
54	0xbe65d55a	-0.22444668
55	0xbdc98c2b	-0.09841188
56	0xbe1bae80	-0.15203285
57	0x3d02700c	0.031845137
58	0x3dceabfd	0.10091398
59	0x3ecd6a7c	0.40120304
60	0x3ec1081f	0.37701508
61	0x3e4a693f	0.1976671
62	0xbf0444d6	-0.51667535
63	0x3e5c1ce9	0.21495403
64	0xbe685f04	-0.22692496
65	0x3d8da6c9	0.06916577
66	0x3ed9f07f	0.42566296
67	0x3e08409d	0.13305898
68	0x3e98c232	0.2983566
69	0x3ecce89d	0.4002122
70	0xbe24348a	-0.16035667
71	0xbb831ad5	-0.0040010014
72	0x3ea2275b	0.3167065
73	0xbe5320bd	-0.20617957
74	0x3f1afb68	0.60539865
75	0xbe23736f	-0.15962003
76	0xbe6eced8	-0.23321092
77	0xbc6b58fe	-0.014364479
78	0xbe6110c2	-0.21979049
79	0x3ee36483	0.44412622
80	0xbe8c77d3	-0.2743517
81	0xbfc3684d	-1.5266205
82	0x3f13e2c0	0.5776787
83	0xbeebac83	-0.46030053
84	0xbf9a69a9	-1.2063495
85	0x3ce38554	0.027773537
86	0x3e91b9bb	0.28462014
87	0xbd9e3e12	-0.07726683
88	0xbe921996	-0.28535146
89	0x3ed2fa20	0.41206455
90	0xbec15492	-0.37759835
91	0xbeb6e292	-0.35719734
92	0x3e29188b	0.16513269
93	0x3ebc40a4	0.36768067
94	0x3eb2ccdc	0.3492192
95	0xbd6404b3	-0.055668544
96	0x3ea7b224	0.32753098
97	0xbe115e94	-0.14196235
98	0x3e05ba34	0.13059312
99	0x3ec5ab39	0.38607195
100	0x3d865865	0.06559829
101	0xbe7b7512	-0.24556378
102	0x3eb5bad8	0.35494113
103	0xbe9cb345	-0.30605522
104	0xbed6886f	-0.41900966
105	0xbce3c908	-0.02780582
106	0x3eea5105	0.45764938
107	0xbeb4e66e	-0.35332054
108	0x3f8278e5	1.0193144
109	0xbe9eea78	-0.3103826
110	0xbc8a06c7	-0.016848935
111	0x4095f369	4.685963
112	0xbe81585c	-0.25262725
113	0xbe53bfba	-0.20678607
114	0xbe40cc53	-0.18827944
115	0x3e9902d8	0.29884982
116	0xbe35900c	-0.17730731
117	0x3e7387f0	0.23782325
118	0xbe1896ae	-0.1490123
119	0xbe2f2159	-0.17102565
120	0x3f1f6af5	0.6227258
121	0xbc65ea33	-0.014032888
122	0x3bdf5e5d	0.006816669
123	0xbd7cf922	-0.06176103
124	0x3e8b4b61	0.27205947
125	0xbf479861	-0.77966887
126	0xbe6bead1	-0.23038794
127	0xbe087917	-0.13327442
128	0xbe29ef6b	-0.16595237
129	0x3cdaae35	0.026694397
130	0xbc12eca0	-0.008967549
131	0xbeeac178	-0.4585073
132	0x3dc79399	0.09744949
133	0x3d43f097	0.047836866
134	0x3eb40c4d	0.35165635
135	0xbdff7f76	-0.12475483
136	0xbf1f5d9e	-0.62252223
137	0xbe8aa3aa	-0.2707799
138	0x3c8c015f	0.017090498
139	0x3e2cf23d	0.16889282
140	0xbfd24b4d	-1.642923
141	0xbf40a21b	-0.75247353
142	0x3dcda09d	0.100404
143	0x3eda2fff	0.42614743
144	0x3f6349de	0.8878459
145	0xbf1216f9	-0.57066303
146	0x3e92f4b3	0.28702316
147	0xbf9e1c4f	-1.2352389
148	0x3e9cb6bc	0.30608165
149	0xbe065ed5	-0.13122113
150	0x3ebf81b7	0.37403652
151	0xbed62045	-0.41821495
152	0xbe884872	-0.2661777
153	0x3e2d37ac	0.16915768
154	0xbe7b3ec7	-0.24535666
155	0xbf4333ba	-0.76250803
156	0x3db0c6a4	0.08631638
157	0xbc9ceced	-0.019155944
158	0x3de9704e	0.113983735
159	0xbe1ae07e	-0.151247
160	0x3d924a72	0.071431056
161	0xbd81eabe	-0.06343602
162	0xbd3404d2	-0.04394991
163	0x3ee9e6a9	0.45683792
164	0x3d7818d0	0.060570538
165	0xbf550f02	-0.83226025
166	0x3efdb4a6	0.49551886
167	0xbe474ece	-0.19463655
168	0xbf32e803	-0.6988527
169	0x3e984de6	0.29746932
170	0xbd7e297a	-0.062051274
171	0xbf8d5d3a	-1.1044075
172	0x4007725e	2.1163554
173	0xbf8b03ff	-1.0860595
174	0xbd87ad64	-0.066248685
175	0xbfe8350a	-1.8141186
176	0xbe0b87bd	-0.13625999
177	0xbe869a01	-0.2628937
178	0xbf8e3178	-1.1108847
179	0xbd5fe2a6	-0.05465951
180	0xbd222edc	-0.03959547
181	0xbed57d28	-0.4169705
182	0xbe97106d	-0.2950472
183	0xbd663ed3	-0.056212258
184	0x3efe49c6	0.4966566
185	0xbe026e21	-0.12737323
186	0xbb780776	-0.0037846244
187	0xbeb6fde8	-0.3574059
188	0xba93a8be	-0.0011265499
189	0x3fa1987e	1.2624662
190	0x3f5342df	0.8252391
191	0xbe2d1c59	-0.16905345
192	0x3e00f136	0.12592015
193	0x3ddf673c	0.10908362
194	0xbda19ac8	-0.0789085
195	0xbd2a8cb4	-0.04163809
196	0xbb173502	-0.0023072367
197	0xbe428cff	-0.18999098
198	0xbd34a137	-0.04409906
199	0x3e2a5bf9	0.16636647
200	0xbd33a405	-0.043857593
201	0x3cdcb7b4	0.026943065
202	0xbd0e027b	-0.034670334
203	0x3e193443	0.14961343
204	0xbdda971f	-0.10673355
205	0xbd9c0b5d	-0.07619355
206	0xbda3d3a7	-0.07999354
207	0xbe26c4bc	-0.16285986
208	0x3d6d810c	0.057984397
209	0xbb4154ad	-0.0029499934
210	0x3e17175f	0.14755009
211	0x3d8d99a3	0.069140695
212	0xbe365d3d	-0.17809005
213	0x3e1ddfaf	0.1541736
214	0x3e056ec3	0.13030533
215	0xbdaf0d3b	-0.085474454
216	0x3d62988d	0.055321265
217	0xbc92e455	-0.017931143
218	0xbdc6c78a	-0.09706028
219	0xbe3116ae	-0.17293808
220	0xbdefd3df	-0.11710333
221	0xbe14b171	-0.14520814
222	0xbd2c22b6	-0.04202529
223	0xbe0ea288	-0.13929188
224	0xbe3a4f7e	-0.18194386
225	0xbd56550f	-0.052327212
226	0x3ddc7392	0.10764231
227	0xbe8d8509	-0.2764056
228	0xbd37755f	-0.04478967
229	0xbdac9142	-0.08426143
230	0x3dfa0926	0.12208776
231	0x3d4a7c4c	0.049434945
232	0xbd975b59	-0.0739047
233	0xbd40d54f	-0.047078427
234	0xbd80669c	-0.06269571
235	0xbe0c937b	-0.13728134
236	0x3e237657	0.15963112
237	0x3d02e8c6	0.03196027
238	0xbd69bcc8	-0.0570648
239	0x3e39839e	0.18116614
240	0x3e1682c1	0.14698316
241	0x3ea62edf	0.32457635
242	0x3badaffc	0.00530052
243	0x3e56b1cf	0.20966266
244	0x3d75ca62	0.06000746
245	0x3d8bdbed	0.06829057
246	0x3d8b8bd4	0.068137795
247	0xbe7426aa	-0.23842874
248	0xbd4e2120	-0.05032456
249	0xbdd508f3	-0.104020976
250	0xbe1051c7	-0.14093696
251	0xbd34d024	-0.04414381
252	0xbe0f6762	-0.14004281
253	0xbd67272e	-0.05643385
254	0xbe51053a	-0.2041215
255	0xbd3bfab1	-0.045893375

bias f4 [32]
0	0x3d719340	0.05897832
1	0xbe014918	-0.1262554
2	0xbca9118c	-0.02063825
3	0x3d9f0cd0	0.07766116
4	0x3dfdbd26	0.12389593
5	0x3da32b2e	0.0796722
6	0xbe59d26e	-0.21271679
7	0x3e88aa0b	0.26692232
8	0x3d1a4585	0.037663955
9	0xbd5c8de8	-0.05384627
10	0xbd99d483	-0.075112365
11	0xbd5dfe1d	-0.05419742
12	0x3e49871f	0.19680451
13	0x3e49a2fa	0.19691077
14	0xbe362bdc	-0.17790169
15	0xbd618f4d	-0.055068303
16	0x3e86ae55	0.2630488
17	0xbdbe5c66	-0.09294967
18	0x3d276cd5	0.040875275
19	0x3c5c9d97	0.013465307
20	0x3dd094f0	0.101846576
21	0x3e00d643	0.12581734
22	0x3c86c854	0.016452946
23	0x3d708f7a	0.05873058
24	0xbd41a754	-0.047278717
25	0xbdf5fb70	-0.120108485
26	0xbd58ebb5	-0.052959163
27	0x3dbb377f	0.091414444
28	0xbe3d3cd8	-0.18480241
29	0x3c848e84	0.016181238
30	0xbe09a0d4	-0.13440257
31	0x3d19f6d1	0.037588898

weight f4 [16, 32]
0	0x3cda5a6f	0.02665445
1	0xbea87527	-0.3290188
2	0x3f0abe67	0.5419678
3	0x3e3ec52b	0.18629901
4	0xbe713d57	-0.23558556
5	0xbd7bc0e2	-0.061463244
6	0x3e10a354	0.14124805
7	0xbe74f48e	-0.23921415
8	0xbec62e01	-0.38706973
9	0xbcd193a8	-0.025583103
10	0xbdac5e1e	-0.08416389
11	0xbdf6d868	-0.12052995
12	0xbda862b1	-0.08221949
13	0x3d4395ad	0.047750164
14	0xbe4cd72d	-0.20003958
15	0x3e31f90c	0.1738016
16	0xbe11b822	-0.14230397
17	0xbe5e5813	-0.21713285
18	0x3e4a5391	0.1975844
19	0xbe984e6b	-0.29747328
20	0xbe973417	-0.2953193
21	0xbe7619d7	-0.24033295
22	0x3f12657a	0.5718609
23	0xbe466469	-0.19374241
24	0x3e85a8d8	0.2610538
25	0xbd631b3d	-0.0554459
26	0xbe5665de	-0.20937297
27	0x3b03084e	0.0019993964
28	0x3f17b732	0.5926391
29	0xbe13d69a	-0.14437333
30	0x3dd87205	0.105686225
31	0x3e5d94c2	0.21638778
32	0xbda067b8	-0.07832283
33	0x3d5e6d67	0.054303553
34	0x3f1a678d	0.60314256
35	0x3e22f4ae	0.1591365
36	0x3cf40f10	0.029792339
37	0x3c94ecf6	0.018179398
38	0x3f217189	0.63063866
39	0x3d99030e	0.07471286
40	0xbf0275b9	-0.5096088
41	0x3dca1355	0.098669685
42	0xbe24bb59	-0.16087092
43	0x3e17b61d	0.14815564
44	0xbd9fea24	-0.07808331
45	0x3e5ce3eb	0.21571319
46	0xbc9ca048	-0.019119397
47	0xbe2bce29	-0.16777863
48	0xbd756e60	-0.059919715
49	0x3da5cc7c	0.08095643
50	0x3e930ec7	0.28722212
51	0x3bdcb313	0.0067352145
52	0xbf182c7e	-0.5944289
53	0x3e0377aa	0.12838617
54	0x3ec2c45c	0.38040435
55	0x3ded6030	0.11590612
56	0x3ed4383d	0.41449156
57	0x3d48ad4f	0.048993405
58	0xbeb9108f	-0.36145446
59	0x3d8bbc08	0.068229735
60	0x3f387705	0.7205661
61	0x3d865ac7	0.06560283
62	0xbc0977d8	-0.008390389
63	0x3eb79c72	0.35861546
64	0x3dcdbddb	0.10045978
65	0xbe97b2bc	-0.2962855
66	0x3f245c9c	0.6420381
67	0x3e65897a	0.22415724
68	0xbe8feb2b	-0.28109106
69	0xbdf4deec	-0.119565815
70	0x3e9fdf75	0.31225172
71	0xbe39c222	-0.18140462
72	0xbebb03a8	-0.36526227
73	0x3e770f45	0.24126919
74	0xbe58bbb7	-0.21165358
75	0xbe3077ca	-0.17233196
76	0xbe1fda7e	-0.15610692
77	0xbe87851e	-0.26468748
78	0xbe8b9c13	-0.27267513
79	0x3ddb32df	0.10703062
80	0xbea8a96d	-0.32941762
81	0xbed1f6f7	-0.41008732
82	0x3e4ea759	0.20181026
83	0xbee14063	-0.43994436
84	0xbf19d465	-0.60089713
85	0xbe86bd35	-0.26316229
86	0x3f34cc86	0.7062458
87	0xbd65c482	-0.056095608
88	0x3f020503	0.507889
89	0x3d91e57c	0.07123849
90	0xbf2c3634	-0.6727021
91	0x3df3691c	0.118852824
92	0x3f04b676	0.51840913
93	0xbe7b2f09	-0.24529661
94	0x3d62e68e	0.055395655
95	0x3eb0980f	0.34491012
96	0x3e486bdd	0.19572397
97	0xbd487045	-0.048935194
98	0x3f21d568	0.6321626
99	0x3d322bff	0.04349899
100	0xbcb54019	-0.02212529
101	0xbd6c67e3	-0.05771626
102	0x3e58bbf6	0.21165451
103	0x3d1cd3f6	0.03828808
104	0xbeb6d8dc	-0.35712326
105	0xbddfd7f9	-0.109298654
106	0xbe845eb8	-0.25853515
107	0x3dbee4e9	0.09321005
108	0xbe2046e6	-0.15652046
109	0xbe5af56b	-0.21382682
110	0xbea66f21	-0.3250666
111	0xbd55aaa0	-0.052164674
112	0xbeb97e7c	-0.36229312
113	0xbec5d49f	-0.3863878
114	0x3eef2b1c	0.46712577
115	0xbe0fc53b	-0.14040081
116	0xbf1b3e73	-0.60642165
117	0xbe91bd83	-0.28464898
118	0x3f1e1b8c	0.61760783
119	0xbab79105	-0.0014005011
120	0x3e7262ef	0.23670553
121	0xbcf7b659	-0.030238317
122	0xbe6c09d1	-0.2305062
123	0xbd466164	-0.048432723
124	0x3f09af24	0.5378287
125	0xbe345ea4	-0.17614228
126	0xbdebe9fc	-0.11519238
127	0x3ea817e0	0.32830715
128	0x3dda7e47	0.10668617
129	0xbebdc327	-0.37062952
130	0x3f0a55e7	0.54037327
131	0x3e3f9fac	0.18713254
132	0xbaa8e113	-0.001288446
133	0xbe382bf7	-0.17985521
134	0x3e959ade	0.29219717
135	0x3db2ee16	0.087368175
136	0xbe55657c	-0.20839494
137	0x3d8ae369	0.06781656
138	0xbd959807	-0.073043875
139	0xbcd07b80	-0.025449514
140	0xbe6acfb7	-0.229308
141	0xbdc80f30	-0.09768522
142	0xbcaf642b	-0.021410068
143	0x3d231b68	0.03982106
144	0xbe0e8e07	-0.13921367
145	0xbe99b8bb	-0.3002375
146	0x3e69ec18	0.22843969
147	0xbead68c6	-0.33868998
148	0xbc502509	-0.012704142
149	0xbe5c08c5	-0.2148772
150	0x3e9f9378	0.31167197
151	0xbe741a03	-0.23838048
152	0x3e59fa84	0.2128697
153	0xbdbc3e06	-0.091915175
154	0xbee211fa	-0.4415434
155	0x3b15ad38	0.0022838842
156	0x3ed86b1f	0.42269227
157	0x3df2ff83	0.11865141
158	0xbd849caf	-0.064751975
159	0x3ea9760a	0.3309787
160	0x3ce8adf6	0.028403264
161	0xbe824087	-0.25439855
162	0x3f296632	0.6617156
163	0x3e99eaa5	0.30061832
164	0xbe87dbe1	-0.26534942
165	0xbe84608d	-0.25854912
166	0x3ec27965	0.37983242
167	0xbdbe785a	-0.09300299
168	0xbf21dbd4	-0.63226056
169	0x3d961596	0.07328336
170	0x3c9f5131	0.019447895
171	0x3e240758	0.16018426
172	0xbebd7a31	-0.37007287
173	0xbd943197	-0.07236021
174	0xbe28f86f	-0.1650102
175	0x3ca5c34a	0.020234723
176	0xbddc05b2	-0.10743274
177	0xbe6d9340	-0.23200703
178	0x3e5aa9d0	0.21353841
179	0xbecb8722	-0.39751536
180	0xbf19d8f4	-0.6009667
181	0xbeacf3e9	-0.3377984
182	0x3f27df25	0.65574867
183	0xbe474f79	-0.1946391
184	0x3e76e822	0.24111989
185	0x3e3a4f6c	0.1819436
186	0xbf35fead	-0.7109173
187	0xbe155279	-0.14582242
188	0x3eba1156	0.3634135
189	0xbe6f80fb	-0.23389046
190	0x3e5f1766	0.2178627
191	0x3ebb3c46	0.36569422
192	0x3e65a9d0	0.2242806
193	0x3df5ac4a	0.11995752
194	0x3f251e3d	0.64499265
195	0x3d4ed842	0.05049921
196	0x3e7e19e5	0.24814565
197	0x3da51448	0.08060509
198	0x3f2996dc	0.6624582
199	0xbde56551	-0.11200965
200	0xbe98014c	-0.2968849
201	0x3de5476b	0.111952625
202	0x3d10f6c2	0.035391577
203	0x3e230201	0.15918733
204	0xbcc79103	-0.02436114
205	0xbd8c3cc7	-0.0684753
206	0x3df295a9	0.11844952
207	0xbe08c4a0	-0.13356256
208	0xbd862863	-0.06550672
209	0xbeda78d8	-0.4267032
210	0x3da8ffeb	0.082519375
211	0xbc72d5c2	-0.014821472
212	0xbe56bb01	-0.20969774
213	0x3dc7f18f	0.097628705
214	0x3f0d17ef	0.55114645
215	0x3daae74c	0.08344898
216	0x3e9fc45b	0.31204495
217	0xbe2638dc	-0.16232628
218	0xbf1c3efa	-0.61033595
219	0x3e54e086	0.20788774
220	0x3f0f1809	0.5589605
221	0x3dacf9d3	0.08446088
222	0xbc248ad9	-0.0100428695
223	0x3eadf0c6	0.33972758
224	0x3e8c9fe7	0.27465746
225	0x3e542d2e	0.2072036
226	0x3f05a9d9	0.5221229
227	0xbdddbfa5	-0.10827569
228	0x3cbb1761	0.022838296
229	0x3e4359e5	0.19077261
230	0x3ef6cde3	0.48203954
231	0x3ddddbf5	0.10832969
232	0xbf16e780	-0.5894699
233	0x3da2c4cd	0.07947693
234	0x3d4c046f	0.049808916
235	0x3c30ef27	0.010799206
236	0x3d9809e5	0.07423762
237	0x3d05d565	0.032674212
238	0xbd163860	-0.036674857
239	0xbdc32ce1	-0.09530044
240	0xbcf601ee	-0.030030217
241	0xbe252b4e	-0.161298
242	0x3d821f32	0.06353606
243	0x3c0c60a4	0.008567963
244	0xbf2d7eba	-0.67771494
245	0xbd13f521	-0.036122445
246	0x3f05931a	0.52177584
247	0xbb5c7673	-0.0033639937
248	0x3e9454fa	0.28971082
249	0x3e230577	0.15920053
250	0xbf221056	-0.63306177
251	0xbda5a7b4	-0.080886275
252	0x3f0c110d	0.5471352
253	0x3e8e801a	0.2783211
254	0x3dae591f	0.08513092
255	0x3e151c94	0.14561683

bias f4 [16]
0	0x3c4913b7	0.012272767
1	0xbd0dac2f	-0.034588035
2	0x3c9a5962	0.01884145
3	0xbe07fe0e	-0.13280508
4	0x3ca7ba0b	0.020474454
5	0xbe6d1d84	-0.2315579
6	0xbd1160e7	-0.035492804
7	0x3d4229d0	0.047403157
8	0x3dd5a214	0.104313046
9	0x3e5c4b68	0.2151314
10	0x3e3cd0ce	0.18439028
11	0x3ea256e6	0.31706923
12	0x39fe4374	0.00048496912
13	0x3d9b985e	0.07597421
14	0x3cc88e00	0.024481773
15	0x3d910013	0.07080092

weight f4 [1, 16]
0	0xbec9f741	-0.39446452
1	0xbe95f491	-0.29288152
2	0xbf113986	-0.567284
3	0xbf3097da	-0.6898171
4	0xbf08efaa	-0.534907
5	0xbf0b0d6f	-0.54317373
6	0xbeb2fa1f	-0.34956452
7	0xbeeefce5	-0.46677318
8	0x3ee49f3d	0.4465274
9	0x3ebd281f	0.36944672
10	0x3ea5f4d5	0.32413355
11	0x3e6ed5a1	0.2332368
12	0xbf119e1e	-0.5688189
13	0xbf05d2f7	-0.5227503
14	0xbefb0e8d	-0.4903454
15	0x3e669914	0.22519332

weight f4 [16, 1]
0	0xbfa72b4e	-1.306009
1	0xbe9553ea	-0.29165584
2	0xbedf485d	-0.43609896
3	0x3ecbb9b4	0.39790118
4	0x3ed0f34e	0.40810627
5	0xbf0ef303	-0.55839556
6	0x3f193ae6	0.59855497
7	0x3c17bf02	0.009261848
8	0x3f38b56c	0.7215183
9	0xbdda9341	-0.10672618
10	0x3e3ad4ab	0.18245189
11	0xbf1a1426	-0.60186994
12	0xbe8ab079	-0.27087763
13	0xbdeda549	-0.11603791
14	0xbf41ba02	-0.7567445
15	0x3edebc43	0.43503007

bias f4 [16]
0	0x3f7ebc46	0.9950603
1	0x3fa8813f	1.3164443
2	0x3f606e48	0.87668276
3	0xbddbea04	-0.10737994
4	0x3eaf294a	0.3421119
5	0x3f946cfa	1.1595757
6	0xbf97fc8d	-1.1873947
7	0x3f8859e4	1.0652432
8	0x3ea9ca9f	0.331624
9	0x3f93cb51	1.1546422
10	0x3e9cb949	0.3061011
11	0x3f9b28cd	1.2121826
12	0x3f0f4600	0.55966187
13	0x3fa40aee	1.2815835
14	0x3debd59a	0.11515351
15	0xbe91e931	-0.28498223

weight f4 [32, 16]
0	0xbed02ed6	-0.40660733
1	0xbe422aa9	-0.18961586
2	0xbe68b67d	-0.22725864
3	0xbd3c0c57	-0.045910206
4	0x3c96b1d7	0.018395348
5	0xbf28535e	-0.6575221
6	0x3ddb6214	0.10712066
7	0x3e5b4b37	0.21415411
8	0x3eaeb696	0.34123677
9	0x3dc945c9	0.098277636
10	0x3e445212	0.19171932
11	0xbf2d1a1b	-0.6761796
12	0xbf0bb8f1	-0.54579073
13	0x3c3a9d1d	0.011389998
14	0x3da7a3fa	0.08185573
15	0x3ee1c3d5	0.4409472
16	0xbf406817	-0.7515883
17	0xbd06570e	-0.032797866
18	0xbde7c57f	-0.11316966
19	0x3e733036	0.2374886
20	0x3e8cc3e7	0.27493212
21	0x3e27bfa3	0.16381697
22	0xbf841da0	-1.0321541
23	0x3e7e5081	0.24835397
24	0x3d9f24f2	0.07770719
25	0x3b7f2e68	0.0038937572
26	0xbdead2a4	-0.11465958
27	0xbd87419e	-0.06604312
28	0x3e032b8a	0.12809578
29	0x3e508531	0.20363308
30	0xbd6de69a	-0.058081247
31	0x3e32455a	0.17409268
32	0x3edf01e9	0.43556145
33	0x3f4697ea	0.7757555
34	0x3da12d52	0.07869972
35	0xbe5c5e29	-0.21520294
36	0x3d2010bd	0.039078463
37	0x3e62ced9	0.22149219
38	0xbfed33bd	-1.8531414
39	0x3e29a41f	0.16566513
40	0xbdd8faca	-0.10594709
41	0x3eb41c02	0.35177618
42	0x3e282bdf	0.16422985
43	0x3e4fbe6e	0.20287487
44	0x3e241b49	0.16026033
45	0x3f090b0b	0.53532475
46	0xbe71bbdd	-0.2360682
47	0xbf00e269	-0.50345474
48	0x3dc3b30e	0.09555636
49	0x3e97c8b6	0.29645318
50	0x3e87a108	0.26490045
51	0xbf015dfc	-0.50534034
52	0xbee939c1	-0.45551875
53	0x3eb728d8	0.3577335
54	0x3d88a79f	0.06672596
55	0x3e09bce9	0.1345097
56	0xbe8e013f	-0.27735326
57	0x3e81e4da	0.25369912
58	0xbd24270f	-0.04007631
59	0x3eb075c6	0.34464854
60	0x3ef9327d	0.48671332
61	0x3e238ed4	0.15972453
62	0x3efc4b12	0.49276024
63	0xbf0ebdc3	-0.55758303
64	0x3e94d366	0.29067534
65	0x3f02eddf	0.5114421
66	0x3ee1675f	0.44024178
67	0xbdd8ab12	-0.10579504
68	0x3d8e7bf7	0.06957238
69	0x3e9c6d03	0.3055192
70	0xbf6433c4	-0.8914149
71	0x3d27b156	0.040940605
72	0xbdcb8fe4	-0.09939554
73	0x3ee662b6	0.44997185
74	0x3e5a71c5	0.21332462
75	0x3cb57410	0.02215007
76	0x3e95ccb7	0.29257748
77	0x3f039601	0.5140076
78	0xbe04a427	-0.12953244
79	0x3e05705a	0.1303114
80	0x3ca1dcc3	0.019758588
81	0x3f49452b	0.78621167
82	0xbeb7f0a5	-0.35925785
83	0xbe9564b8	-0.29178405
84	0xbd3b8504	-0.04578115
85	0xbd899ada	-0.06718989
86	0xc088a0cc	-4.2696285
87	0x3e9f6e7d	0.31138983
88	0xbda9f558	-0.08298749
89	0x3e0946f6	0.13405976
90	0xbe935c6f	-0.2878146
91	0xbd9da20d	-0.07696924
92	0xbd974031	-0.073852904
93	0x3f109044	0.5647013
94	0x3eb61b83	0.35567865
95	0xbae8d17b	-0.0017762625
96	0xbdc7f873	-0.09764185
97	0xbf3cca9e	-0.7374667
98	0xbe00aad9	-0.12565173
99	0xbe00a593	-0.12563162
100	0xbe1f132a	-0.15534654
101	0xbe0e0068	-0.13867342
102	0xbe9853a8	-0.29751325
103	0x3deb5a6d	0.11491857
104	0xbe816b6c	-0.2527727
105	0x3ee4ceb1	0.44688943
106	0xbd9fb898	-0.0779888
107	0xbd278620	-0.040899396
108	0xbd273ac4	-0.040827528
109	0x3eebc653	0.46049747
110	0x3e24e20c	0.16101855
111	0x3cb56223	0.022141522
112	0x3edd6944	0.43244374
113	0x3f55bf87	0.8349537
114	0x3ea0f4f8	0.31436896
115	0xbdb52389	-0.088446684
116	0x3e96a130	0.2941985
117	0x3e7d3251	0.24726225
118	0xbfa5df90	-1.2958851
119	0x3e1e0412	0.1543124
120	0x3dbe6cd0	0.09298098
121	0x3eb9e655	0.36308542
122	0xba57e882	-0.00082362455
123	0x3e975346	0.2955572
124	0x3eadd1e9	0.3394921
125	0x3f162299	0.5864654
126	0x3e463d1d	0.1935925
127	0xbe4dc82a	-0.20095888
128	0xbe391459	-0.18074168
129	0xbf268d75	-0.65059596
130	0xbea9ad41	-0.33139995
131	0x3cc8e150	0.0245215
132	0xbe0cad73	-0.1373804
133	0x3d34f6e3	0.044180762
134	0xbeaf37e4	-0.3422233
135	0xbe01ebf0	-0.1268766
136	0xbe0e90f1	-0.13922478
137	0x3e965724	0.29363358
138	0xbe1ec6e2	-0.15505555
139	0xbe433d0b	-0.19066255
140	0xbdfdceb7	-0.12392943
141	0x3f392aa8	0.72330713
142	0xbd1d3991	-0.038384978
143	0xbeb4259d	-0.35184947
144	0xbe6c176e	-0.23055813
145	0xbea6aa78	-0.32551932
146	0xbf1b9e72	-0.60788643
147	0x3e96c68c	0.29448354
148	0x3e2cb0f4	0.16864377
149	0xbf11b8d5	-0.56922656
150	0xbef9dc8a	-0.4880107
151	0xb916cae6	-0.000143807
152	0x3e93af34	0.28844607
153	0x3e749563	0.23885112
154	0x3e5722d6	0.21009383
155	0xbf0c6371	-0.54839236
156	0xbe758247	-0.23975478
157	0x3d4db15b	0.050217967
158	0x39fc5988	0.00048131892
159	0x3db2d11d	0.087312914
160	0xbd27ebf9	-0.040996525
161	0x3c06f755	0.0082376795
162	0x3dddc9e1	0.10829521
163	0xbe4accd3	-0.19804697
164	0x3d9c0f90	0.07620156
165	0xbe48c66c	-0.19606942
166	0x3e048aab	0.12943523
167	0x3d3def96	0.046371065
168	0xbdc90b2b	-0.09816583
169	0x3e77c22a	0.24195161
170	0x3e2be777	0.16787516
171	0xbd536a3a	-0.051614977
172	0xbe76889e	-0.24075553
173	0xbd579fd9	-0.052642677
174	0xbdae263b	-0.08503386
175	0xbe3ccd0d	-0.18437596
176	0x3e5e653e	0.21718308
177	0x3f343cb3	0.7040512
178	0x3ee20abd	0.44148818
179	0xbc2be7fc	-0.010492321
180	0xbe13f6df	-0.14449643
181	0x3efd7f79	0.49511316
182	0xc08079a3	-4.014848
183	0x3e70ed04	0.23527914
184	0xbe1bea51	-0.15226103
185	0x3eabbbf6	0.3354184
186	0xbe40673e	-0.18789384
187	0x3db86dd4	0.09005323
188	0x3dc52a4c	0.09627208
189	0x3ef731c9	0.4828017
190	0x3ea5b472	0.3236423
191	0xbd96af53	-0.07357659
192	0xbda59401	-0.0808487
193	0x3f78cbf4	0.9718621
194	0x3f109b94	0.56487393
195	0x3e2baa3d	0.1676416
196	0xbe1ff1f1	-0.15619637
197	0x3eb59c8d	0.35471
198	0x3f2dfe97	0.679666
199	0x3d6beef6	0.057600938
200	0x3db3e238	0.08783382
201	0xbf42c3ef	-0.7608022
202	0x3e04bad9	0.12961902
203	0x3eee3cd3	0.4653078
204	0x3ed452c9	0.4146941
205	0xbf3c4c54	-0.7355397
206	0x3e42fd33	0.190419
207	0xbd0d2f0c	-0.034468696
208	0xbe26dc12	-0.16294888
209	0xbf8cc120	-1.0996437
210	0xbe6d2afd	-0.2316093
211	0x3bada1fd	0.0052988515
212	0xbdd19e08	-0.1023522
213	0xbbe684a5	-0.0070348554
214	0xbedb76f2	-0.42864186
215	0xbd6df91c	-0.058098897
216	0xbe3cceaa	-0.18438211
217	0x3f12cdaf	0.573451
218	0x3c224200	0.009903431
219	0x3b3127b2	0.0027031717
220	0xbe59cae6	-0.21268806
221	0x3eb9d010	0.36291552
222	0x3d5d6e59	0.054060314
223	0xbd1a483c	-0.037666544
224	0x3e454dd2	0.19267967
225	0x3f19f0a5	0.6013282
226	0x3f525c78	0.82172346
227	0xbecbafb0	-0.39782476
228	0xbe8b1fa4	-0.27172577
229	0x3f33f07e	0.70288837
230	0xc0734a4f	-3.8014104
231	0x3e81d4e8	0.25357747
232	0xbe6dd527	-0.23225842
233	0x3f1ddc68	0.6166444
234	0x3e8b73a5	0.27236667
235	0x3f55540e	0.8333138
236	0x3f555ca2	0.8334447
237	0x3ee8b460	0.45450115
238	0x3f0b70ab	0.5446879
239	0xbec967a5	-0.39336887
240	0xbf5d77e1	-0.86511046
241	0xc0048563	-2.0706413
242	0xbf89e99b	-1.0774416
243	0x3e523c03	0.20530705
244	0x3df0dd50	0.11760962
245	0xbf71d5a7	-0.9446663
246	0x3f321746	0.6956676
247	0x3d353e1a	0.044248678
248	0x3e0d96d7	0.13827072
249	0xbe78f969	-0.24313892
250	0x3ed6aaa2	0.41927058
251	0xbf8a16b5	-1.078818
252	0xbf3af513	-0.73030204
253	0xbf3b66a6	-0.73203504
254	0xbe9c6339	-0.3054445
255	0x3e612fe9	0.21990933

bias f4 [32]
0	0xbbac181e	-0.0052518984
1	0xbd064e03	-0.03278924
2	0x3f0ff00c	0.5622566
3	0x3cd9632e	0.02653655
4	0x3f0450ca	0.51685774
5	0x3e659e2d	0.2242362
6	0x3e5fadd7	0.21843658
7	0x3f1d06ca	0.61338484
8	0x3e4709fc	0.19437402
9	0x3c1e89df	0.009676426
10	0xbe2af557	-0.16695152
11	0x3e89b0b4	0.26892626
12	0xbea4e3c6	-0.32205027
13	0x3ea7ca37	0.32771465
14	0x3f162053	0.5864307
15	0xbeb39a11	-0.3507848
16	0x3d851455	0.06498019
17	0x3eca8775	0.3955647
18	0xbea4b7cb	-0.32171473
19	0x3eb4bd66	0.3530075
20	0xbc7502b4	-0.014954258
21	0xbf3e342e	-0.7429837
22	0xbea62d5f	-0.3245649
23	0x3ea9ea93	0.33186778
24	0x3e47f927	0.19528638
25	0x3ee4ee26	0.44712943
26	0x3eadc74d	0.33941117
27	0xbf9d649e	-1.2296331
28	0x3e06445a	0.13112012
29	0x3db57dbb	0.08861872
30	0x3de0e55c	0.10981247
31	0xbdab002e	-0.08349644

weight f4 [64, 32]
0	0xbd6603b8	-0.05615589
1	0xbd475b54	-0.04867108
2	0x3f0d24c8	0.5513425
3	0xbdea7bd7	-0.11449402
4	0xbe8c1da9	-0.2736638
5	0xbf4840ed	-0.7822407
6	0xbdfbabac	-0.12288603
7	0xbef363cb	-0.47537073
8	0x3c001589	0.007817634
9	0x3e2178a4	0.15768677
10	0xbe0ecc9a	-0.13945237
11	0xbf3a094c	-0.72670436
12	0x3cdbd247	0.026833666
13	0xbd55dbda	-0.05221162
14	0xbefdd3f4	-0.4957577
15	0xbcb0d9c6	-0.021588217
16	0x3e0b7315	0.13618119
17	0x3e948e25	0.29014698
18	0x3e38aae0	0.18033934
19	0x3e1077a2	0.14108136
20	0xbd2b5bb2	-0.041835494
21	0xbf16d531	-0.58919054
22	0xbdd47906	-0.10374646
23	0x3caeed5e	0.02135342
24	0x3cbc17a1	0.022960486
25	0xbe62c85f	-0.22146748
26	0x3d968ae2	0.073507085
27	0xbe189db4	-0.14903909
28	0x3de4f543	0.111795925
29	0x3b47c7fd	0.0030484193
30	0xbd94e5ad	-0.0727037
31	0x3ae9f1cc	0.001784855
32	0x3e841503	0.2579728
33	0x3e074e50	0.13213468
34	0x3d7be884	0.06150104
35	0xbb1ef43e	-0.0024254466
36	0xbc37f02e	-0.011226697
37	0xbe044859	-0.12918223
38	0x3d414da5	0.04719319
39	0xbe7678ff	-0.24069594
40	0x3de17c00	0.11009979
41	0x3dfa3a86	0.12218194
42	0xbe025e3c	-0.1273126
43	0xbe924764	-0.28570092
44	0xc0217af2	-2.523129
45	0x3db1886b	0.08668598
46	0xbf0333dc	-0.51251006
47	0x3dbc5b8c	0.09197149
48	0x3e424212	0.18970516
49	0x3e9018ce	0.28143924
50	0x3dfb1f2c	0.12261805
51	0x3e47a162	0.19495156
52	0xbf0ec107	-0.55763286
53	0xbdcd6cf3	-0.10030546
54	0xbf3b5de5	-0.73190147
55	0x3e5fc416	0.21852145
56	0xbe2e7790	-0.17037797
57	0xbbcc09f2	-0.0062267715
58	0x3e68b544	0.22725397
59	0x3f899977	1.0749959
60	0x3e25c343	0.16187768
61	0x3b67be8d	0.003536138
62	0x3d3825b4	0.04495783
63	0xbee4931b	-0.44643483
64	0xbbeb86af	-0.0071876864
65	0xbda25cf1	-0.079278834
66	0x3fc45361	1.5337945
67	0x3de8daa7	0.113698296
68	0xbf0a6e7f	-0.54074854
69	0xbf81a923	-1.0129741
70	0x3dea56a4	0.11442307
71	0xbf49fd5a	-0.7890221
72	0x3e0a9ca8	0.13536322
73	0x3ddcfbdb	0.10790225
74	0x3e2c1fc0	0.16808987
75	0xbf8812a2	-1.0630686
76	0xbfa9e91a	-1.3274262
77	0x3df3b2ce	0.11899339
78	0xbf41c863	-0.7569639
79	0xbd1d290c	-0.038369223
80	0x3d7b3857	0.061333027
81	0x3f38757c	0.72054267
82	0x3ccfe7e8	0.025379136
83	0x3e018d80	0.12651634
84	0xbe128fce	-0.1431267
85	0xbf94b629	-1.1618091
86	0xbd3d7327	-0.046252396
87	0x3e7a1890	0.24423432
88	0x3f54e892	0.83167374
89	0xbed6b87e	-0.4193763
90	0x3dfdc0cc	0.12390289
91	0x3f741448	0.95343447
92	0x3dee9e93	0.116513394
93	0xbdf70111	-0.1206075
94	0xbe3aae09	-0.18230452
95	0xbe7aef7c	-0.24505419
96	0x3da48263	0.08032682
97	0xbdb78a5c	-0.08961937
98	0x3fc70ffa	1.5551751
99	0xbcf081a5	-0.029358694
100	0xbf1c274c	-0.6099746
101	0xbf56e40d	-0.8394173
102	0xbda8b610	-0.08237851
103	0xbf64c824	-0.8936789
104	0x3e110c36	0.14164814
105	0x3de1f4d9	0.11033029
106	0xbbdeabc8	-0.0067953803
107	0xbf811489	-1.0084392
108	0xbfb272d6	-1.3941295
109	0x3ec4c71f	0.38433167
110	0xbf381318	-0.71904135
111	0x3d0d8188	0.03454736
112	0x3d8749e5	0.06605891
113	0x3f772891	0.96546274
114	0x3e3ad04f	0.18243526
115	0x3e1f6292	0.15564945
116	0xbe3c6ebc	-0.18401617
117	0xbfbb1597	-1.4615964
118	0xbe8d57dd	-0.27606097
119	0x3ded4636	0.11585657
120	0x3f51f91a	0.82020724
121	0xbf174317	-0.59086746
122	0xbd4ba72b	-0.04971997
123	0x3f53d5de	0.8274821
124	0x3e7a6efa	0.24456397
125	0xbe950272	-0.29103428
126	0x3b89432b	0.0041889152
127	0xbc94d6b8	-0.018168792
128	0x3df71a3d	0.120655514
129	0x3dccd59a	0.10001679
130	0x3ee0b9b4	0.4389168
131	0xbd0959f2	-0.033533044
132	0xbeabe620	-0.3357401
133	0xbe71bf93	-0.23608236
134	0x3c9e0419	0.019289063
135	0xbeee8fa9	-0.4659398
136	0xbe315b7a	-0.17320052
137	0x3d58ac19	0.0528985
138	0xbdc5f43a	-0.09665723
139	0xbeee0879	-0.4649084
140	0xbea927ec	-0.3303827
141	0x3e1f713c	0.15570539
142	0xbf046072	-0.51709664
143	0xbe40ccda	-0.18828145
144	0x3e117e26	0.14208278
145	0x3f0e4a9a	0.5558258
146	0xbdec8ecb	-0.11550673
147	0x3e563e7d	0.20922275
148	0xbe64940e	-0.22322103
149	0xbf15c8f8	-0.5850978
150	0xbcaa365b	-0.020777872
151	0x3e571363	0.21003489
152	0x3e15734d	0.14594765
153	0xbe5936bc	-0.21212286
154	0x3d39cb3f	0.045359846
155	0x3e0ea4a8	0.13929999
156	0x3dcabc35	0.09899179
157	0xbf15471c	-0.5831163
158	0x3e131850	0.14364743
159	0xbd8eba9c	-0.06969187
160	0x3e5e956a	0.21736684
161	0x3d065b51	0.03280193
162	0xbd30ab70	-0.043132246
163	0xbd7c58a0	-0.061607957
164	0x3d29db99	0.04146919
165	0x3e5fc378	0.21851909
166	0xbe718af1	-0.23588158
167	0x3e4ed271	0.20197465
168	0xbe38d657	-0.18050514
169	0xbe076f2c	-0.13226002
170	0xbe0c9c95	-0.13731606
171	0xbd5878fe	-0.052849762
172	0xbdc36108	-0.095399916
173	0xbe6e9c81	-0.23301889
174	0xbca2e46b	-0.019884309
175	0xc016c8ee	-2.3560138
176	0x3e940463	0.28909597
177	0xbdda609d	-0.10662959
178	0xbc87ebb3	-0.016591882
179	0x3e59d83b	0.21273892
180	0xbe900e61	-0.2813597
181	0xbda8d067	-0.082428746
182	0x3e320a6e	0.17386791
183	0x3eae6ca4	0.3406726
184	0xbe451865	-0.19247587
185	0x3ec01d62	0.37522417
186	0xbe7d9354	-0.24763232
187	0xbe755b33	-0.23960571
188	0x3e553d01	0.20824052
189	0xbd4b1511	-0.049580637
190	0xbd923f06	-0.07140927
191	0xbe169486	-0.14705095
192	0xbcdddde3	-0.027083343
193	0x3bcd6fdd	0.0062694387
194	0x3fc5b53b	1.5445932
195	0xbe91fbfe	-0.28512567
196	0xbf42056f	-0.7578954
197	0xbf9a6f41	-1.2065202
198	0x3f239f12	0.639146
199	0xbf9850be	-1.189964
200	0x3f9c8fd5	1.2231394
201	0x3e9754cc	0.29556882
202	0x3e57ad17	0.21062122
203	0xbf944686	-1.1584022
204	0xc0304893	-2.7544296
205	0x3f98826f	1.1914805
206	0xbf9c16ed	-1.2194496
207	0x3fd60a1d	1.6721836
208	0x3df06d65	0.11739615
209	0x406a3d89	3.6600058
210	0xbd244f1d	-0.04011451
211	0x3e2dfd93	0.16991262
212	0xbe722420	-0.23646593
213	0xbfd9571e	-1.6979711
214	0xbfa6135e	-1.297466
215	0x3eb0890f	0.34479567
216	0x3f2e1836	0.6800569
217	0xbed96150	-0.42457056
218	0x3f7b4744	0.9815562
219	0x4012bb3c	2.2926779
220	0xbe163e9a	-0.14672318
221	0xbf39d82b	-0.7259547
222	0xbd9e5f08	-0.077329695
223	0xbe9c6310	-0.3054433
224	0x3e6ac683	0.22927289
225	0x3db03f18	0.08605784
226	0x3e2a5e4f	0.16637538
227	0xbdc6a4c0	-0.09699392
228	0x3f1d2fcf	0.61401075
229	0xbf8a3cde	-1.0799825
230	0xbdf3ab03	-0.11897852
231	0x3e00cea9	0.12578835
232	0xbe255a37	-0.16147695
233	0x3d8d584a	0.069016054
234	0x3d91ac0d	0.07112894
235	0xbf722b36	-0.94597185
236	0x3eb1b00f	0.34704635
237	0xbe39b5d0	-0.18135762
238	0xbf29a7e5	-0.6627181
239	0x3d596128	0.05307117
240	0x3e04465f	0.1291747
241	0x3d57fd2a	0.05273167
242	0x3d97ff1b	0.074217044
243	0xbdac0e63	-0.084011815
244	0xbdd8e75e	-0.10591005
245	0x3e98818e	0.29786342
246	0xbcc6c70b	-0.024264833
247	0x3d0d2d15	0.03446682
248	0x3ed62d68	0.41831517
249	0x3f06c79b	0.52648324
250	0x3db83c6e	0.08995901
251	0x3fc71a33	1.555487
252	0x3e49adef	0.19695257
253	0xbfabfd82	-1.343674
254	0xbe13de71	-0.14440323
255	0xbc9918b6	-0.01868854

bias f4 [64]
0	0x3f08742f	0.5330228
1	0xbc8c9242	-0.017159585
2	0x3eb6586b	0.35614333
3	0x3e66af62	0.2252784
4	0x3e8fbb73	0.280727
5	0x3ebf5c22	0.3737498
6	0xbe2cb68d	-0.16866513
7	0xbdea2d22	-0.1143439
8	0x3e6c02b7	0.2304791
9	0x3e71032f	0.2353637
10	0x3eec09aa	0.46101123
11	0x3e20bfae	0.1569812
12	0x3e7db7ab	0.24777095
13	0xbe896b15	-0.2683951
14	0xbe95b78c	-0.29241598
15	0x3e1122be	0.1417341
16	0xbe5549eb	-0.20828979
17	0xbeb466d7	-0.3523471
18	0xbdffcdd4	-0.124904305
19	0x3e049140	0.12946033
20	0xbe7ad08d	-0.24493618
21	0x3ef2e29c	0.47438514
22	0xbdadb3b7	-0.084815435
23	0x3edac309	0.42726925
24	0xbdf879b7	-0.1213259
25	0x3d0908c2	0.033455618
26	0x3c4a21cb	0.012337158
27	0xbcd96eb7	-0.02654205
28	0x3d69ce7a	0.057081677
29	0xbed96977	-0.42463276
30	0xbed64be4	-0.41854775
31	0x3dd478cd	0.103746034
32	0x3e966a72	0.29378086
33	0xbebac412	-0.36477715
34	0xbefde20c	-0.49586523
35	0xbee39c2d	-0.4445509
36	0x3e7978e0	0.24362516
37	0xbe818be1	-0.25302032
38	0xbe283416	-0.16426119
39	0xbd5db529	-0.054127846
40	0xbe9b4d11	-0.30332235
41	0x3e1372ea	0.14399305
42	0xbe7e13fe	-0.24812314
43	0xbe864dd7	-0.26231262
44	0xbe4e11e8	-0.20124018
45	0xbd178199	-0.03698883
46	0x3e937cdb	0.28806195
47	0x3e085c51	0.13316466
48	0x3ddd4899	0.108048625
49	0x3c8275a6	0.01592524
50	0xbeb56116	-0.35425633
51	0x3ea74ec2	0.32677275
52	0xbe9f4e26	-0.3111431
53	0x3d647edc	0.055785045
54	0x3dcaf687	0.099103026
55	0xbe1419e2	-0.14462999
56	0xbe8b17fa	-0.2716673
57	0xbe5cd23f	-0.21564578
58	0xbe609bec	-0.2193448
59	0x3dadf0dc	0.08493206
60	0x3e46b76d	0.19405909
61	0xbe41c1c9	-0.1892158
62	0x3c215c50	0.009848669
63	0xbe9b6cdd	-0.30356494

weight f4 [3, 64]
0	0x3eecfd49	0.4628699
1	0xbd31e840	-0.04343438
2	0x3e03e65e	0.12880847
3	0x3df38cc9	0.11892087
4	0x3e1bf322	0.15229467
5	0x3f52caa7	0.8234047
6	0xbc6a4997	-0.014299772
7	0xbe92b870	-0.2865634
8	0xbcc698c6	-0.02424277
9	0xbd12912b	-0.035782974
10	0xbc20ed37	-0.009822181
11	0x3ab2d46f	0.0013643632
12	0x3e0adc58	0.13560617
13	0xbed1a4de	-0.40946096
14	0x3bbf269d	0.0058334605
15	0xbfcef21c	-1.6167636
16	0xbfa2313b	-1.2671274
17	0x3f7eddab	0.9955699
18	0x3d30192e	0.042992763
19	0x3df3855b	0.1189067
20	0xbda4c55a	-0.08045454
21	0x3df34823	0.11878993
22	0xbff22653	-1.8917946
23	0x3ddf64d8	0.10907906
24	0xbe938c38	-0.28817916
25	0xbfa3efa1	-1.2807504
26	0xbfea7327	-1.8316392
27	0xbe880aef	-0.26570842
28	0xbc889b66	-0.016675662
29	0xbfd1a3d2	-1.6378119
30	0xbfe14d6f	-1.7601756
31	0x3b63c025	0.0034751978
32	0x3d2f09d7	0.042733993
33	0xbed76663	-0.42070302
34	0x3c889571	0.016672822
35	0xbce0e39f	-0.027452288
36	0x3e66a6b4	0.2252453
37	0xbff4c9ce	-1.9124086
38	0xbfdb03cd	-1.7110535
39	0xbfbbf510	-1.4684162
40	0xbd9623fd	-0.07331083
41	0xba8e63c4	-0.0010863473
42	0xbc957091	-0.018242152
43	0xbfa19882	-1.2624667
44	0xbfa244f2	-1.267729
45	0xbcc0c3d6	-0.023530882
46	0xbcb505fc	-0.02209758
47	0xbd1cffed	-0.038330007
48	0xbeb09d2c	-0.34494913
49	0xbe8cecaa	-0.2752431
50	0xbd557a7d	-0.052118767
51	0x3e714871	0.2356279
52	0xbfbcbc7b	-1.474502
53	0xbfa68cb8	-1.3011694
54	0x3d41d450	0.047321618
55	0xbfd665e9	-1.674985
56	0xbfc7e0f4	-1.5615525
57	0x3f5efe30	0.8710661
58	0x3b8747fd	0.0041284547
59	0x3b0eb673	0.0021776229
60	0xbc623631	-0.013806866
61	0xbfb27f8f	-1.3945178
62	0xbefa4181	-0.488781
63	0xbe86b48b	-0.26309618
64	0xbe46a892	-0.19400242
65	0xbea9e101	-0.33179477
66	0xc0192b0a	-2.393252
67	0xc02128dc	-2.5181189
68	0xbee76dca	-0.4520095
69	0x3d73cde7	0.059522536
70	0xc03db53b	-2.9641864
71	0x3b23cdb5	0.0024994437
72	0xc06502a7	-3.578287
73	0xbe9a8521	-0.30179694
74	0x3eedef99	0.4647186
75	0x3b2ac654	0.0026058154
76	0xc01a9093	-2.415074
77	0x3cb99710	0.02265504
78	0xc0363f49	-2.8476126
79	0xbdb75fe2	-0.08953835
80	0x3de7604e	0.112976655
81	0xbcc3ae0d	-0.023886705
82	0xbcf812b8	-0.030282363
83	0x39cfab74	0.0003960986
84	0xbc99f894	-0.01879529
85	0xbd772f35	-0.060347755
86	0xbd9d76e5	-0.07688693
87	0xc007b832	-2.1206174
88	0x3e09806a	0.13427892
89	0xbcf6fec6	-0.030150782
90	0xbdb8c872	-0.09022607
91	0x3d246f9f	0.040145513
92	0xc07100d6	-3.765676
93	0x3b89fad2	0.0042108083
94	0x3ea626b8	0.32451415
95	0x3bc6efa0	0.006071046
96	0xbe257f97	-0.16161953
97	0x3c34e7be	0.01104158
98	0xc02a64db	-2.6624057
99	0xc035e7d0	-2.8422737
100	0x3c596093	0.013267654
101	0xbd3f6718	-0.046729177
102	0x3e03c3fb	0.1286773
103	0xbde92155	-0.11383311
104	0xbc841fdd	-0.016128475
105	0x3c355fdc	0.011070218
106	0xc0390eee	-2.8915362
107	0x3b81142f	0.0039391736
108	0x3de66a87	0.11250787
109	0xc046edd2	-3.1082654
110	0x3e74d293	0.23908453
111	0xbee734d2	-0.45157486
112	0x3d0de227	0.034639504
113	0x3dbe60cf	0.092958085
114	0x3b94d043	0.0045414283
115	0xbb07127b	-0.002061038
116	0x3bafc226	0.0053637205
117	0xbd02c38f	-0.03192478
118	0xbc51fc28	-0.012816466
119	0x3ea9b80a	0.33148223
120	0x3daeac2b	0.08528932
121	0xbb4c02d1	-0.0031129608
122	0xbafe140e	-0.0019384639
123	0x3bd4fcec	0.006499877
124	0xc062cf46	-3.543901
125	0xbd809274	-0.06277934
126	0x3e03913c	0.12848371
127	0x3da43a4e	0.08018933
128	0x3c9cad55	0.01912562
129	0x3d976476	0.07392208
130	0x3e1456b5	0.14486201
131	0x3c225243	0.009907308
132	0x3c7b4cd2	0.01533814
133	0xbca434bc	-0.020044677
134	0xbd8567a0	-0.065139055
135	0xbc0c094b	-0.0085471375
136	0xbd9046fe	-0.07044791
137	0x3d60cef7	0.054884877
138	0x3c19206e	0.009346111
139	0xbc6bf83a	-0.014402444
140	0xbd37f807	-0.04491427
141	0xbcfd9d4f	-0.0309588
142	0xbd1ca3d6	-0.038242184
143	0x3dededa3	0.11617591
144	0x3da35cff	0.07976722
145	0xbc9c51b3	-0.019081926
146	0x3d0bde55	0.03414758
147	0x3e05d03e	0.1306772
148	0x3d5eca45	0.054392118
149	0xbd74c4e5	-0.059758086
150	0xbcc86c54	-0.024465717
151	0x3d3c8fb8	0.0460355
152	0xbdd6923f	-0.10477113
153	0x3ca281a7	0.019837214
154	0xbd8a3279	-0.06747908
155	0x3ac9f64a	0.0015408483
156	0x3ce5e3c4	0.028062709
157	0xbdef8cb9	-0.116967626
158	0x3cae7be5	0.021299312
159	0x3e098f9b	0.13433687
160	0xbd63d5ff	-0.055624004
161	0xbca3291f	-0.019917069
162	0x3c8ddfa9	0.017318564
163	0xbba46674	-0.005017096
164	0xbc090ead	-0.008365315
165	0x3ca09f94	0.019607343
166	0x3de16fe5	0.1100767
167	0xbd9face8	-0.07796651
168	0x3d62558e	0.055257373
169	0x3d26074a	0.040534295
170	0xbda7c1ca	-0.08191259
171	0x3dd14168	0.102175534
172	0xbcdf2214	-0.02723793
173	0x3d4e885c	0.05042301
174	0xbb45434c	-0.0030099927
175	0xbd251489	-0.040302787
176	0xbd474725	-0.048651833
177	0x3d82eef0	0.0639323
178	0xbd04e4a2	-0.032444604
179	0xbd6d35bc	-0.057912573
180	0xbd8927cd	-0.066970445
181	0xbd8d0d65	-0.068873204
182	0xbd4bfd59	-0.049802158
183	0x3d1fe124	0.03903307
184	0x3d8e7266	0.069554135
185	0x3c9e5010	0.019325286
186	0x3d8ef1b6	0.069796965
187	0x3d0e6f19	0.03477392
188	0x3da18f70	0.07888687
189	0x3d8420e7	0.06451588
190	0xbd136064	-0.035980597
191	0xbcc93732	-0.024562452

bias f4 [3]
0	0x3e90e116	0.28296727
1	0xbcebf148	-0.028801575
2	0x3b41f222	0.0029593785
